app/src/main/ml/model_2.tflite (tflite, 169656 bytes, 14 tensors)

sequential_5/dense_3/MatMul f4 [7, 64]
00000000: e80f 45be 7ded b8bd 8198 a63d b2e8 febc
00000010: ae6f 0cbe 493d 1ebd 9dd5 20be 082b de3d
00000020: e170 d1be 4149 11be 7f47 f03d 6014 543e
00000030: a721 0d3e 10f4 b4be d285 873e c4a9 a9bd
00000040: e4dd 033c 93c1 4b3e 60b4 ca3d f459 6abe
00000050: cc37 403d f99e 883d e4a4 483e 17dd 733e
00000060: cb89 05be 41c4 5f3d 9a59 cfbd bdd1 16be
00000070: 4be1 183e 2b7f 8c3d b031 adbe f5be bcbd
00000080: a1ee f63d 1730 38bd eeb3 babe 96b2 7dbe
00000090: 3b38 2f3e 38f4 5dbe 2701 30be dbf2 193e
000000a0: df02 21bd fb66 99be 069a 91be c43c bb3c
000000b0: 7188 64bd cb9e 55bd 4cfb 0a3e 35e2 6abe
000000c0: 928a 3fbe 7048 803e ffae 013e c52f 083e
000000d0: 2032 1bbe a6dc 76be 41fd f6bd c0a0 52be
000000e0: 0603 c7bd 662c 8dbd 51e3 173e ce7b 753e
000000f0: 1998 73be 01e6 86be 7ffa a3be 5969 593e
00000100: 7245 303e 430d 513e 3a94 3c3e fab2 e6bd
00000110: a9ce 29bd d6e1 90be f03c 143e 6a2e e53c
00000120: 47f9 fe3c 68f3 b03d d7c4 87be 2bd3 2fbe
00000130: 4349 c6be 9879 debe d3d3 99be 5256 113e
00000140: f0ac 733e f802 d53e 35a0 793e a5c0 25be
00000150: 2cba f6bd 82e2 a83d df2d 86be b1fe c43d
00000160: 5d3e 79be ae38 8ebe 6d11 573d 7d6d 0f3e
00000170: f6ad 7fbe f6d7 783e f3b4 943e 0955 fbbd
00000180: 5a3c e4bd 1eda 56be eb4c 87be b336 0b3e
00000190: f33e 57be 57d2 bc3d 2bb6 07be 18e6 39be
000001a0: b7ec 833e fc9b aabe 1187 d13d 8978 96bd
000001b0: ddef 2b3e 67cb b7bd 89b5 51be bf28 2cbe
000001c0: 7ade 2d3e c584 d6be d4c8 ecbd a2e2 7abb
000001d0: 9e2d 413e fab0 1a3d c9a5 3fbc 13ea a33d
000001e0: faa3 23bd 6ffd b7be 25b5 393d 57ae 73bd
000001f0: 4230 b9bd 2435 40be f6c1 373e 1786 8cbe
00000200: 1dc7 8c3d 471e 713e 05cd f13c 5c87 1f3e
00000210: bc6c 803e 5ba3 67be 51ca 6fbe 7e35 a2bc
00000220: 79ca 9cbd 7781 b63d 92c0 063e bab3 38be
00000230: d06d 813d cf16 0abe e0d7 f73d 0f15 253c
00000240: 2b4d c3bd da70 48be 5b0c e3bd 4825 7dbe
00000250: 50c8 dfbd eb8b 66bc 84a5 f5bd b7ef 31be
00000260: bea6 203e c5ea af3e cfc2 143d e8b8 85be
00000270: 8902 393e 3325 993d 84f1 643e 3379 a43d
00000280: aae0 8abe 5e28 58be 914f a5be 6899 233d
00000290: bf14 a33e 66df 87bd 523e 90be c06f c03d
000002a0: ff77 44bd 654e e23d 92be 0ebe 4952 aebe
000002b0: df6d 08be 14e0 013e 7fbe 343e 351d 8abe
000002c0: 4aa7 60be d53f 06be 651c 74be f469 10be
000002d0: e086 7e3e 8de1 413e 91fc 8cbe 8676 843e
000002e0: 8cab 42be 86bf 2abe 8299 50be a66c bbbd
000002f0: 4019 a2be 852a a8be 56b0 6dbe 2944 56bd
00000300: 6edb ed3a 0391 5e3e 68b1 d5be cfcc 9bbd
00000310: bcf4 f73d d1d1 2a3e 51a0 cbbc 66e2 d63a
00000320: a637 6f3e 6cda 74be d6ba 12be 65e7 3b3e
00000330: 7bc5 913d 5f28 74be 9a89 8ebe a727 843e
00000340: 3092 b7be c662 553e e23f 44be 3d81 753e
00000350: 69d9 c8bd f348 203e 6c91 87be dfa4 8abe
00000360: a23f 32be 7e8c afbe 8d40 d2bd 1306 8b3d
00000370: 611d da3d ec3c 4dbd 6784 193e ff66 43be
00000380: 285e 323d 7814 103e af5c 85bd 02a4 803d
00000390: a2dd cabe be62 9fbc 08cd 8b3d ecd6 323d
000003a0: bbd8 06bd ca65 39be 6068 383d 9e24 8c3e
000003b0: 5121 c03e 4eb4 133e ca84 5fbd 1d0e 273e
000003c0: 9981 59be 4e87 c5bd c7c8 f13d 6c4e 84bd
000003d0: f135 183e 6ac7 ac3c 42b2 613e ebae 68be
000003e0: 3c93 7d3e 2810 263d 4089 28be 5306 813e
000003f0: 2ae5 37be 8b68 5f3e 52f7 ac3d 70bf 0bbe
-0.19244349 -0.09029672 0.081345566 -0.031116817 -0.13714477 -0.038632665 -0.15706487 0.10848051
-0.40906432 -0.141881 0.11732387 0.20710897 0.13782369 -0.35342455 0.26469284 -0.08284333
0.008048508 0.19898061 0.09897685 -0.22885877 0.046928212 0.06670947 0.19594151 0.23814808
-0.13040845 0.05463052 -0.10124512 -0.14728446 0.14929692 0.06860193 -0.3382697 -0.0921611
0.120572336 -0.044967737 -0.364654 -0.24775156 0.17111294 -0.21675193 -0.1718794 0.15034048
-0.03930938 -0.2996138 -0.28437823 0.022856124 -0.055794183 -0.05215339 0.13572425 -0.22937854
-0.18705204 0.25055265 0.12664412 0.13299473 -0.1515584 -0.24107608 -0.12060023 -0.20569134
-0.097173735 -0.06893234 0.14832808 0.23973009 -0.2378849 -0.26347354 -0.3202705 0.21231593
0.17213991 0.20415215 0.18415919 -0.11264606 -0.041456852 -0.282973 0.14476371 0.027976234
0.031124724 0.08640176 -0.26517364 -0.17170398 -0.3872777 -0.43452144 -0.30044422 0.14193085
0.23796439 0.41603827 0.2437752 -0.1618677 -0.12047228 0.08246328 -0.26206872 0.09618891
-0.24340196 -0.27777618 0.052506853 0.1400661 -0.24968705 0.24301133 0.29044303 -0.122720785
-0.11144324 -0.20981643 -0.2642587 0.13595085 -0.21020107 0.09219807 -0.13253085 -0.1815418
0.25766537 -0.33322132 0.1023084 -0.07347209 0.1679072 -0.08974343 -0.20479406 -0.16812418
0.169794 -0.4189817 -0.115617424 -0.0038282056 0.18865058 0.037766434 -0.011697241 0.080036305
-0.039951302 -0.35935542 0.04533877 -0.059492435 -0.090424076 -0.18770272 0.17945084 -0.27446052
0.06873915 0.23546706 0.029516706 0.15578979 0.25082958 -0.22620909 -0.23417021 -0.019800898
-0.07655806 0.08911412 0.13159397 -0.1803731 0.06319773 -0.13485263 0.12101722 0.010075822
-0.09536203 -0.195743 -0.11086341 -0.24721253 -0.109268785 -0.014071445 -0.1199446 -0.173766
0.15688607 0.34358802 0.036318596 -0.26117635 0.18067373 0.07477798 0.22357756 0.080309294
-0.2712453 -0.21109149 -0.32287267 0.03994122 0.31851766 -0.06634407 -0.28172547 0.093963146
-0.047966 0.11050109 -0.13939884 -0.34047154 -0.13323162 0.12683135 0.17650793 -0.26975408
-0.21938816 -0.13110287 -0.23838957 -0.14102918 0.24856138 0.18933697 -0.27536443 0.25871676
-0.19010752 -0.16674623 -0.20371059 -0.091515824 -0.3165989 -0.3284494 -0.23211798 -0.052311096
0.001814706 0.21735005 -0.41736913 -0.076074235 0.12107226 0.16681601 -0.024856718 0.0016394376
0.23361072 -0.23911446 -0.14329085 0.18349989 0.071177445 -0.23843525 -0.27839357 0.25811502
-0.3585372 0.2083846 -0.19164994 0.23975082 -0.09807093 0.15652828 -0.26478136 -0.27078912
-0.17407086 -0.34286875 -0.10266218 0.06788268 0.10650135 -0.050106928 0.14991914 -0.19082259
0.043546826 0.14070308 -0.065118186 0.06281282 -0.39622217 -0.019456264 0.06826216 0.043661997
-0.032921534 -0.18105236 0.045021415 0.27371687 0.37525418 0.1442425 -0.054569997 0.16313978
-0.21240844 -0.09644948 0.11805873 -0.0646027 0.14864327 0.021091182 0.22040656 -0.22722976
0.24763197 0.04054275 -0.16458607 0.25200137 -0.17958513 0.21817224 0.0844561 -0.13647246

sequential_5/dense_2/BiasAdd/ReadVariableOp f4 [64]
00000000: 9010 96bc 4848 1fbd 400f a5be 2484 c4bd
00000010: 77b1 3bbd d7e1 533d d049 25bd 2691 7dbe
00000020: a0e0 6e3d 0e2b 35be 04a2 3b3e 7fa9 8bbc
00000030: 3365 263e d051 8fbd 385b fb3d f99d 6b3d
00000040: 1fab 6ebe 2349 993c d52b a9bc 45b6 213e
00000050: a268 1ebc dda1 1fbd 03ec 5abd dbd6 113d
00000060: 32fe 02bd 7480 2cbe 6aa2 b63d 59b2 e9bb
00000070: 87c4 4cbe 6767 8bbd 050b dcbd f059 57bd
00000080: 2426 973e 91a3 cdbd 28e7 b0bb 1551 cabd
00000090: 0916 9fbe ccb9 2d3d f063 1b3e 6c80 8bbd
000000a0: a59a 0cbe da63 6e3d deb2 a43d abbf 653d
000000b0: fd43 1c3e aaa3 bbbd 96e4 a9bc 2d7e fb3e
000000c0: 02b7 3ebd 67d3 a3bc 1e4d b7bc 66bb 10bd
000000d0: ded6 a4bc ca7d 1dbe 4a2a 523e 49cc 0e3e
000000e0: 8502 343d 5e33 c63b 84fa 4a3d 6646 abbb
000000f0: 06e1 973e 1d7d c73e dfe3 eb3d 39b4 86be
-0.018318444 -0.038887292 -0.32238197 -0.09595516 -0.04582354 0.05172905 -0.040353596 -0.24762401
0.058319688 -0.17692205 0.18323523 -0.017048595 0.16249542 -0.06998026 0.12273258 0.0575237
-0.23307465 0.018711632 -0.020650784 0.15792187 -0.009668501 -0.038972724 -0.053447735 0.035605293
-0.0319807 -0.16845876 0.08917697 -0.0071318564 -0.19996844 -0.06806832 -0.10744289 -0.052576005
0.29521286 -0.100409634 -0.0053986497 -0.098787464 -0.310715 0.042413518 0.15174842 -0.06811604
-0.13730867 0.058200695 0.08041929 0.056090992 0.1526031 -0.09162076 -0.020738881 0.49119702
-0.04656125 -0.019998265 -0.02237564 -0.035334967 -0.020121988 -0.15380016 0.20523944 0.13945116
0.043947715 0.006048604 0.049555317 -0.005226898 0.29663867 0.3896264 0.11518072 -0.26309374

sequential_5/dense_3/BiasAdd/ReadVariableOp f4 [7]
00000000: 14cd 89be 025f fbbd 7656 a6be 6647 0b3e
00000010: 089b b73d c54a 873e c008 b2bd
-0.26914275 -0.12273981 -0.3248784 0.13601455 0.08965117 0.26424232 -0.08693075

sequential_5/conv2d_5/Relu;sequential_5/conv2d_5/BiasAdd;sequential_5/conv2d_5/Conv2D;sequential_5/conv2d_5/BiasAdd/ReadVariableOp f4 [32, 3, 3, 3]
00000000: ccce 8e39 0ce7 a936 1858 2db9 19c0 a0b8
00000010: f5ab c539 d002 cb38 afb1 2fba 4ab4 023a
00000020: 82da 113a 10fb 23b9 c327 3ab9 73c8 173a
00000030: b85b 1bb9 ae01 c539 9c50 213a 9359 b839
00000040: b3c8 34b9 bbe6 043a 25e0 cab9 ad8f a7b9
00000050: 0894 d939 16fa f4b9 0182 7f38 3e22 213a
00000060: 6ccd 9fb8 2f0e f838 14ca a1b8 e621 3eb7
00000070: acc4 d9b9 7f56 2dba eb49 d139 0c45 9cb9
00000080: 442b 88b9 ebad 0eb9 b6be 1d39 de78 8b39
00000090: 231e 0139 4be9 4eb9 7a0d 20b9 fdf2 50b9
000000a0: 085b aa39 0071 c239 3198 cc39 488b 26ba
000000b0: 0a52 09b9 5fdf b2b7 8186 9238 15f1 ceb7
000000c0: 5f70 b2b9 752d bc39 5478 6539 b53a a3b8
000000d0: c11b 5ab9 70e5 00ba 5c0c f1b8 5cca 4739
000000e0: 9394 10ba d31e eab9 7e8a 20b9 da4c 73b9
000000f0: 012a c039 9bf9 2bba 9416 66b9 30e2 a638
00000100: 02ba 3e39 af1a acb9 fc87 a039 bba9 b5b8
00000110: e2b0 a539 af58 e4b9 b3df 31b9 db53 35b9
00000120: 42f7 1f39 4abf 0dba be99 3436 b854 f738
00000130: 9cd6 4f38 fbe6 ac38 7569 ad39 5474 5f39
00000140: 872b 8b39 4b2b da39 afef bcb9 40b9 cb39
00000150: b0ec 2ab9 45d0 b2b8 417b bab8 7dd2 9ab9
00000160: 0f0d 6ab8 cb92 eeb8 e1d7 a9b9 8cff 0fb8
00000170: daa4 8cb9 d7c2 3fb8 7996 93b9 8dec 3b39
00000180: ac3e 11ba 0c32 f9b8 1056 6a39 d229 d6b9
00000190: cda9 6bb9 7f5d ea39 ad94 4fb8 7aaf a6b9
000001a0: 368d ebb9 ab95 dcb9 5158 8f39 0f7f 7439
000001b0: 8782 26b9 fe7c 0038 b07d d039 fe00 f5b9
000001c0: 4bf2 17b9 8934 cfb9 33a1 7fb9 540a e8b9
000001d0: 62dc f939 4c8f d9b9 7478 f8b9 4ae3 8639
000001e0: a041 1dba a283 d8b9 f0e3 ee39 e171 bab9
000001f0: 51b0 f838 947a f639 32c0 09ba cf05 72b9
00000200: 1ff6 be38 fd89 2fba 5c19 5738 f9ce 9239
00000210: b466 25ba 0aa3 adb9 69b7 2e3a 15d9 f338
00000220: 9beb 0e39 0390 87b7 fada 15ba 8e4b b2b9
00000230: 26ab 9e39 a693 9db9 0c49 4e39 24b1 16ba
00000240: 8b44 81b9 892a 59b9 2fa7 ba39 934b 6d39
00000250: 9dab 29b9 5ab2 7037 28d3 ee39 6ad3 a638
00000260: e167 25b9 e94b 43b9 4fa5 6bb8 c3cf 9338
00000270: d119 a139 955e 0cb9 4b0d 18b9 b249 abb9
00000280: 47e0 b638 61db 3339 99f2 15b9 09d7 c039
00000290: 30b5 a2b9 780b 05b9 92c7 fa39 f015 96b9
000002a0: dccf 5cb9 99d8 9839 a3b2 09ba 1a3f b4b9
000002b0: 7359 433a 2a34 0c38 1625 3339 444c 8039
000002c0: 61ec 36b9 ce82 02ba 451c 423a 95c2 00ba
000002d0: 7ba8 bdb9 4b8c 123a 58e5 0239 323a 00b9
000002e0: 0515 f339 59af 2739 4aee c6b9 df93 1c3a
000002f0: 9655 b1b9 077e fcb9 bd79 8e39 3931 10ba
00000300: 2dec 9ab9 12dc c7b8 1d86 fbb9 e48a c839
00000310: 8948 8838 493b 3839 a43c 36b9 b2b6 deb9
00000320: 21a7 2db8 85a7 5137 5ac2 a639 f026 29ba
00000330: 484a 2637 5a55 1cb9 7958 8738 b666 0eb9
00000340: 71bf 82b9 3133 21ba a584 d5b9 d7d1 a8b9
00000350: 30ea 2d39 2292 9db8 ffe0 73b7 b2c0 b838
00000360: 1eca 06ba 5d7f b7b8 1fc0 f4b8 9e63 e9b8
00000370: 82cc f9b9 62cc c8b9 415a 0939 6483 4fb9
00000380: cf67 8ab9 5542 5838 2ee9 e939 8584 32ba
00000390: 78e5 2d39 2ad5 8339 cb6f e0b9 eb28 9539
000003a0: d7b9 ce39 1d52 46ba 85ba efb7 149c ab38
000003b0: 29f1 00ba e006 8c39 5ae1 0e39 33dc b3b9
000003c0: 1baf fa39 abce bab9 d88f 08ba 78a3 c5b9
000003d0: 09d5 0739 9792 58ba 4eaa aeb9 3392 8bb8
000003e0: b946 92b8 a967 9ab8 3be5 bf39 6598 2c39
000003f0: 7a0a abb9 fd38 5339 c27f 10ba 6d69 9d39
0.00027238426 5.06349e-06 -0.00016531383 -7.6651755e-05 0.00037702886 9.680318e-05 -0.0006702197 0.00049859716
0.0005563871 -0.0001563842 -0.00017753155 0.0005790062 -0.0001481612 0.0003757602 0.00061536743 0.00035161953
-0.00017240904 0.0005069782 -0.00038695443 -0.0003195977 0.00041499757 -0.00046725635 6.0917813e-05 0.0006146765
-7.6199736e-05 0.000118282034 -7.714718e-05 -1.1332775e-05 -0.00041535997 -0.0006612315 0.0003991866 -0.00029806083
-0.00025972177 -0.00013606965 0.00015043732 0.000266022 0.00012313625 -0.000197326 -0.0001526381 -0.00019926946
0.0003249275 0.00037086755 0.00039023304 -0.0006353152 -0.000130959 -2.1323269e-05 6.986876e-05 -2.4669376e-05
-0.0003403453 0.00035892022 0.00021883968 -7.783381e-05 -0.00020800439 -0.00049170014 -0.000114940776 0.00019053504
-0.00055153033 -0.00044654924 -0.00015310381 -0.00023202915 0.0003665239 -0.00065603264 -0.0002194292 7.9576275e-05
0.00018189105 -0.00032826277 0.00030618894 -8.662367e-05 0.0003160304 -0.00043553623 -0.0001696337 -0.00017292744
0.00015255532 -0.00054072274 2.691158e-06 0.00011793658 4.9552516e-05 8.2446226e-05 0.00033075703 0.00021310273
0.00026544576 0.00041612456 -0.00036036732 0.000388572 -0.00016300636 -8.526495e-05 -8.892129e-05 -0.00029529995
-5.580211e-05 -0.00011376067 -0.00032395034 -3.4331853e-05 -0.00026825705 -4.5719407e-05 -0.00028150136 0.00017921832
-0.000554065 -0.00011882567 0.0002234804 -0.0004084842 -0.00022474602 0.00044701618 -4.949111e-05 -0.00031792728
-0.00044927903 -0.0004207318 0.00027340886 0.00023316986 -0.00015879619 3.0633986e-05 0.00039766496 -0.0004673078
-0.00014490743 -0.00039521258 -0.00024378746 -0.00044258183 0.0004765718 -0.0004149623 -0.0004739199 0.00025727815
-0.00059988536 -0.00041296805 0.00045564724 -0.0003556153 0.00011858403 0.00047012104 -0.00052547746 -0.00023081082
9.1057496e-05 -0.0006696282 5.1283612e-05 0.00028001497 -0.00063095544 -0.00033118605 0.00066649035 0.000116275776
0.00013629945 -1.6160315e-05 -0.0005716529 -0.00034007098 0.00030263624 -0.0003005538 0.00019672903 -0.0005748442
-0.00024655866 -0.00020710578 0.00035601246 0.00022630235 -0.00016181027 1.43466405e-05 0.0004555222 7.954876e-05
-0.00015774324 -0.00018624928 -5.618232e-05 7.048205e-05 0.00030727548 -0.00013386675 -0.00014500802 -0.0003267057
8.720211e-05 0.00017152495 -0.00014300122 0.00036781307 -0.00031034043 -0.00012688141 0.00047832407 -0.00028626574
-0.00021058269 0.00029153077 -0.0005252754 -0.0003437929 0.00074519886 3.3427183e-05 0.00017084586 0.00024470885
-0.0001744493 -0.0004978598 0.0007404725 -0.00049118075 -0.00036174417 0.0005590363 0.00012483203 -0.0001222871
0.00046364233 0.00015991683 -0.00037943042 0.0005972962 -0.00033823837 -0.00048159083 0.00027175053 -0.0005500499
-0.00029549134 -9.530051e-05 -0.00047974373 0.00038250454 6.498496e-05 0.00017569693 -0.00017379463 -0.00042479258
-4.1402065e-05 1.2496374e-05 0.0003180679 -0.00064526405 9.911666e-06 -0.00014909115 6.453781e-05 -0.00013580438
-0.00024938167 -0.0006149291 -0.00040725354 -0.000321998 0.00016585807 -7.513563e-05 -1.4536315e-05 8.809696e-05
-0.0005141812 -8.749843e-05 -0.00011670612 -0.00011128861 -0.0004764535 -0.0003829925 0.0001309896 -0.00019790005
-0.00026398755 5.156019e-05 0.00044614956 -0.0006809908 0.0001658405 0.00025145087 -0.00042807902 0.0002844998
0.00039429843 -0.00075653364 -2.8577875e-05 8.182987e-05 -0.0004918748 0.00026708003 0.00013626125 -0.00034305602
0.0004781418 -0.00035630664 -0.00052094227 -0.00037696562 0.00012953965 -0.00082615897 -0.00033314753 -6.655268e-05
-6.9749956e-05 -7.3626004e-05 0.0003660115 0.0001645997 -0.00032623467 0.00020143758 -0.00055122015 0.00030023922

sequential_5/conv2d_5/BiasAdd/ReadVariableOp f4 [32]
00000000: b78c 73be 5099 9abc 5cf1 91bd 65a0 edbc
00000010: 1ed4 7f3d c6ca 49bc 4945 8f3b f69e f7bc
00000020: a8bf 85bd d645 663c a5da 90bc 6177 f93d
00000030: 7fb5 48bd 04d6 a93c 8b46 c03c d38a d1bc
00000040: 5177 b23c 45de dabc c3e2 16bc 9da9 5a3a
00000050: 2361 80bd 4cca 2e3d 487e d63d 2a8c 9abc
00000060: bb31 79bc c998 20bc 25b8 40bd 8511 b4bc
00000070: 996d 063d 03dc bdbc ecc6 893a f14e 38bd
-0.23784147 -0.018871933 -0.07126114 -0.029007146 0.06245815 -0.012316411 0.004372273 -0.030227166
-0.06530696 0.014054736 -0.017682383 0.12180973 -0.049001213 0.020731933 0.023471138 -0.025578892
0.02178541 -0.026717314 -0.009209338 0.00083413144 -0.06268527 0.042673394 0.10473305 -0.018865664
-0.015209611 -0.009802052 -0.047050614 -0.02198101 0.032819364 -0.023176199 0.0010511554 -0.04499716

sequential_5/conv2d_6/BiasAdd/ReadVariableOp f4 [64]
00000000: 8a0b 9cbc a137 6bbd 9a6e 343d 0504 01bd
00000010: b686 2abd 04d0 9cbc 3579 eebd 59a2 55bd
00000020: 1035 c5bd 961c 42bd 6bc1 c4bc aa6e 30bc
00000030: ca12 6abd d5ca 9cbc ccd3 bd3b 9b80 063d
00000040: 2b86 22bd 2bbf f0bc f2c1 c5bd 8173 26bc
00000050: a2ac dbbc 3d4c ddbc 493b 3ebd 7a3a d0bc
00000060: cdf5 20bd 72cf dcbc bbe9 273d 29a7 84bc
00000070: f6b9 4dbc ff3b 22bd 7deb 6abd 45f2 123d
00000080: aeea d4bb 3ddf 43bd 8b22 0cbd bb6d 20bd
00000090: a19d 19bd a78b 023c 4254 6cbc f2b0 fbbc
000000a0: 0fc5 82bc 0c84 fdbc df72 d0bc f5c6 b6bc
000000b0: ce61 743b 1f35 d33c c1a0 943c 3b6f 16bd
000000c0: 8fdf a3bc fedf bfb8 cfb1 b3bd 5fd7 ecbc
000000d0: f004 b9bd c85c 253d 7d0b 03bd f61d 11bd
000000e0: 2743 5c3d c81a f6bc 9259 5ebc ae3c febc
000000f0: 763b 20bd 92a3 b9bc 7992 b9bc de51 88bd
-0.019048471 -0.0574261 0.04405079 -0.031497974 -0.041632377 -0.019142158 -0.11644212 -0.05215678
-0.096292615 -0.047390543 -0.02401801 -0.010768572 -0.057146825 -0.019139687 0.0057930704 0.03283749
-0.039678734 -0.029388031 -0.09656133 -0.010159374 -0.026815716 -0.027013892 -0.046443257 -0.025418509
-0.039296914 -0.026954386 0.040994387 -0.01619299 -0.012556544 -0.039607998 -0.057353485 0.035875577
-0.0064977026 -0.04782032 -0.03421263 -0.039167147 -0.037503842 0.007967866 -0.0144243855 -0.030724023
-0.015963105 -0.030946754 -0.0254454 -0.022311667 0.0037289741 0.025782166 0.01814306 -0.03672717
-0.020004062 -9.1493115e-05 -0.08774149 -0.02891129 -0.09034145 0.040371686 -0.031993378 -0.035428964
0.05377498 -0.030042067 -0.01357116 -0.031034794 -0.039119206 -0.022661004 -0.022652851 -0.0665624

sequential_5/conv2d_7/BiasAdd/ReadVariableOp f4 [64]
00000000: fa50 58bc 12ad 81bb aee4 10bd cde5 263d
00000010: 1277 56bd 31f3 16bd 9f5a 883d cd59 50bd
00000020: 7a2b 17bd 842f 34bd 4e57 95bd 39d7 d1bd
00000030: 56ac 76bd 363b c2bc 9c80 c1bc b00e 00bc
00000040: b347 e1bc 551e b9bd ca60 60bc 3b5e 02bd
00000050: 90f7 c1bc 9228 89bc ec38 37bd be8b 05bd
00000060: 1dda 15bd 53b6 74bd 11d4 b43c cd6a 8abc
00000070: b341 31be c447 21bd 11f0 94bd 99e7 e1bb
00000080: 4d8d 9e3d 41c5 1fbd 340e 48bd 290e 1ebe
00000090: 6435 1fbe 2de7 04bb d0e0 97bc 6203 da3c
000000a0: ed3e f2bc a9ea 6439 fb0d 213b 3bbd f43b
000000b0: cb60 b9bc 3f56 5abc 8481 e5bd 4a9c 43bd
000000c0: c40e 94bc 8a53 10bd cabb a8bd 2f05 43bc
000000d0: 5564 233c f8f5 4dbd bb54 4bbc 0227 04bd
000000e0: 6af2 88bc 2895 84bd 8111 92bd 193a 18bd
000000f0: ac53 08bd 71f8 d5bc 45db 39bd 7fdf 08be
-0.0132029 -0.003957399 -0.035374336 0.0407465 -0.052359648 -0.03685302 0.066579096 -0.05086689
-0.036906697 -0.043990627 -0.07292043 -0.102461286 -0.060222946 -0.023709875 -0.023620896 -0.007816002
-0.02750001 -0.090389885 -0.013694951 -0.031828146 -0.023677617 -0.016742978 -0.04473202 -0.03260397
-0.036584962 -0.05974419 0.022073777 -0.01689663 -0.17310219 -0.03937508 -0.072723515 -0.0068940637
0.07741795 -0.039006475 -0.04884167 -0.15435089 -0.1554771 -0.0020279393 -0.018539816 0.026612941
-0.029571021 0.00021831192 0.0024574983 0.007468847 -0.022629162 -0.013326227 -0.11206344 -0.04775647
-0.018073447 -0.03523592 -0.08238943 -0.011903091 0.0099726515 -0.050283402 -0.012410338 -0.032263763
-0.016717155 -0.06473762 -0.07132245 -0.03716478 -0.03328292 -0.026119443 -0.045375127 -0.13366507

sequential_5/conv2d_8/BiasAdd/ReadVariableOp f4 [64]
00000000: f4fe f9bc 854a 8fbd a063 1e3e 0631 8bbd
00000010: 9ed3 03be 2eff 983d 01fc e2bb f4fd 8dbd
00000020: 144d 8dbd c789 b8bd 684f ffbd 10d5 87bd
00000030: d1bd 423d 0446 08bd 3797 5abd b45f eabd
00000040: cbd4 28bd e6d1 5fbd 08a0 15be b6c4 9bbd
00000050: ff9b 963d 4bba 123e b1f0 e53d 0ec7 d43d
00000060: c8d0 d0bd 588b 8ebc d5f4 19bc 207b 28bd
00000070: b1d0 3e3d 26fd 64bd fbff 3a3c a143 3cbd
00000080: 3e2b 933d 1a17 a7bc 41bb 3fba 1103 25bd
00000090: ba70 7e3a d2ab b4bc 49ee 5b3c d74e 3dbd
000000a0: 5ea8 edbc 2a9e b23d 22ae 1cbd 841f afbb
000000b0: 65d5 82be 7f06 87bd 070c b8bc 7ad5 84bd
000000c0: b5b7 b73b 2049 3e3d f6ec 1fbd 5e97 7bbc
000000d0: 2e31 f8bc 9ca2 1f3e 370e 4cbd f853 45bc
000000e0: 3d14 89bd 8771 a7bc fc9e 6dbd 8b25 fcbc
000000f0: f602 0cbd 721b 28bc 9fca dbbc 598f cb3d
-0.030517079 -0.06996635 0.15467691 -0.0679646 -0.12873694 0.07470547 -0.006927014 -0.06933203
-0.06899467 -0.09010654 -0.124663174 -0.06632435 0.047544304 -0.033269897 -0.053366866 -0.11444035
-0.04121856 -0.054643534 -0.14611828 -0.07605879 0.07353973 0.14328878 0.11227549 0.10389529
-0.10196072 -0.017400429 -0.009396751 -0.041133046 0.046585742 -0.055905484 0.01141357 -0.045962933
0.07185982 -0.020396758 -0.0007313975 -0.040286127 0.00097061286 -0.022054587 0.013423511 -0.046217766
-0.029010948 0.08721574 -0.038252003 -0.005344333 -0.25553432 -0.06593036 -0.022466673 -0.0648603
0.0056066164 0.046456456 -0.039044343 -0.015355913 -0.030296888 0.15589374 -0.049818244 -0.0120439455
-0.06693313 -0.020439876 -0.058012947 -0.03077962 -0.03418251 -0.01026045 -0.026830016 0.09939451

sequential_5/conv2d_9/BiasAdd/ReadVariableOp f4 [64]
00000000: 4612 54bd 1b65 fbbc 42e3 4b3d 3208 8dbd
00000010: b6af 32bd 5c3a 163e fd26 f5bc 98a2 bfbd
00000020: dfe4 91bd c92a bebc 779e a5bd e5da 31be
00000030: 9df6 4fbd 5c2e f8bc 3341 0fbd 450e 4d3e
00000040: a4aa 28be dc30 a1bd df44 e9bb 15a2 9ebd
00000050: 51dc 98bc baf3 f33d ed87 9fbc 726b 8cbd
00000060: 8677 d7bc ab24 123e 8fc2 b23d 44ba 04be
00000070: e17a ad3c 039b b6bd 3489 903d 9d62 eebd
00000080: b334 593d a129 ad3e 8855 d3bc c063 11be
00000090: 067e 05be e2f2 e53d a0b5 1b3e 6d23 43be
000000a0: 5bba 853e 84dd 4bbd d30d 79bc e10c 04bd
000000b0: 9302 c2bc 348c 943d 211c 57bc 1c6b 83bc
000000c0: 1fb1 43be 3941 02bd 0f47 4d3e 7f56 f7bd
000000d0: acbb 81bc 3eaa d8bd 66fc a33e 1840 55bd
000000e0: 09aa ddbc f53c 223d dc99 85be 246a 44bd
000000f0: fd67 7abd ab24 18bd d0f7 cfbd fd37 18bd
-0.05177524 -0.03068786 0.049777277 -0.06886329 -0.043624602 0.146707 -0.029925818 -0.09357184
-0.07123732 -0.02321376 -0.080868654 -0.17368658 -0.050772298 -0.030295543 -0.03497429 0.20024975
-0.16471344 -0.07870647 -0.007118806 -0.077457584 -0.018659743 0.119117215 -0.019473994 -0.06856431
-0.02630211 0.142718 0.08728515 -0.1296168 0.021176757 -0.08916285 0.070574194 -0.11639903
0.053028774 0.33820823 -0.02579762 -0.14198208 -0.13036355 0.11227967 0.15206003 -0.19056483
0.2611874 -0.0497718 -0.01520105 -0.032238845 -0.023682868 0.07253304 -0.013129265 -0.016042285
-0.19110535 -0.031800482 0.20046638 -0.12077045 -0.01583656 -0.10579346 0.32028502 -0.052063078
-0.027058618 0.039608914 -0.26093948 -0.047952786 -0.061134327 -0.037144344 -0.10154688 -0.03716277

sequential_5/conv2d_6/Conv2D i1 [64, 3, 3, 32]
00000000: 9912 bcb4 1447 9cf3 4243 caa6 8119 30a8
00000010: bc2d 54ae 0bfc db39 8fe0 3a96 31c0 d99e
00000020: 133e 9712 57f4 069b 16d8 ef56 1aaf fc11
00000030: e323 3610 8fef f751 32e3 36f7 c540 ee1b
00000040: d3c9 0010 a8c9 9788 3b95 9939 2b49 4334
00000050: 9c15 363f 95c4 2cc7 0e07 2a27 d9e1 cad9
00000060: 5aef 4854 eaa1 4652 db14 b5e1 0e29 f5ca
00000070: 3257 ace2 3e85 aa19 5b00 9eb0 d5f9 12de
00000080: 0bc3 4420 08b8 b43d 07e5 cc04 d633 b39e
00000090: fabd f2f5 d095 e967 05d8 11ce ff43 98c5
000000a0: 91aa bd39 fd2d c753 aaed f436 2d10 4944
000000b0: e647 c3d0 d6b7 d6e3 cc0a 433e 0f53 4dd9
000000c0: bd3d 314f 0525 a9da dfa2 e6fb 3fd1 3d4b
000000d0: 9a40 a138 c0be da3c 98d1 2f94 c4cc fb97
000000e0: e6c3 8c3b f642 2ee0 2ec6 ffd5 9d1d 3032
000000f0: e7e6 14b6 d0cb 9ca3 e2eb ecfb 4025 2ab8
-103 18 -68 -76 20 71 -100 -13
66 67 -54 -90 -127 25 48 -88
-68 45 84 -82 11 -4 -37 57
-113 -32 58 -106 49 -64 -39 -98
19 62 -105 18 87 -12 6 -101
22 -40 -17 86 26 -81 -4 17
-29 35 54 16 -113 -17 -9 81
50 -29 54 -9 -59 64 -18 27
-45 -55 0 16 -88 -55 -105 -120
59 -107 -103 57 43 73 67 52
-100 21 54 63 -107 -60 44 -57
14 7 42 39 -39 -31 -54 -39
90 -17 72 84 -22 -95 70 82
-37 20 -75 -31 14 41 -11 -54
50 87 -84 -30 62 -123 -86 25
91 0 -98 -80 -43 -7 18 -34
11 -61 68 32 8 -72 -76 61
7 -27 -52 4 -42 51 -77 -98
-6 -67 -14 -11 -48 -107 -23 103
5 -40 17 -50 -1 67 -104 -59
-111 -86 -67 57 -3 45 -57 83
-86 -19 -12 54 45 16 73 68
-26 71 -61 -48 -42 -73 -42 -29
-52 10 67 62 15 83 77 -39
-67 61 49 79 5 37 -87 -38
-33 -94 -26 -5 63 -47 61 75
-102 64 -95 56 -64 -66 -38 60
-104 -47 47 -108 -60 -52 -5 -105
-26 -61 -116 59 -10 66 46 -32
46 -58 -1 -43 -99 29 48 50
-25 -26 20 -74 -48 -53 -100 -93
-30 -21 -20 -5 64 37 42 -72

sequential_5/conv2d_7/Conv2D i1 [64, 3, 3, 64]
00000000: 3215 fae2 191b 10de 0d17 af02 2203 21c8
00000010: 15ef 346a 2a42 f2e7 241b 8cdc 02f8 df1d
00000020: 3cf4 2515 d6dc e202 e302 f6fb ec3f 8115
00000030: e24b b410 08fb 0805 e0e1 02f5 d827 1bf9
00000040: 34ce 13fe 0ddb d9c1 1111 a51f eb07 f4e6
00000050: e221 bb17 131a 1a13 0de2 ab1e 1402 c215
00000060: 1c24 db12 eb1e 18fd e70a 10c4 05fd d01b
00000070: 082b befb 11f3 0a13 c9da 0403 dc17 2924
00000080: e902 e72b 1921 d1e5 0c32 defe b30c 3ee0
00000090: 2c00 e655 ec09 2dee f6ea a7db fc27 93d5
000000a0: 3bef ee3a 1e14 de0d d634 05f5 1712 f410
000000b0: ec13 ff33 2032 0b2d 0ab8 0cd9 14e4 e8f8
000000c0: f2ea b517 2d1d 1af5 2ce4 e00f 4214 e7bf
000000d0: 2c22 200f 0f10 df29 ed0e d4d9 0de0 0ffd
000000e0: 2d25 eaf5 fb28 0eca de20 03ee e308 9fee
000000f0: fc16 b6e9 f01a e108 aaab f5fb f719 2be7
50 21 -6 -30 25 27 16 -34
13 23 -81 2 34 3 33 -56
21 -17 52 106 42 66 -14 -25
36 27 -116 -36 2 -8 -33 29
60 -12 37 21 -42 -36 -30 2
-29 2 -10 -5 -20 63 -127 21
-30 75 -76 16 8 -5 8 5
-32 -31 2 -11 -40 39 27 -7
52 -50 19 -2 13 -37 -39 -63
17 17 -91 31 -21 7 -12 -26
-30 33 -69 23 19 26 26 19
13 -30 -85 30 20 2 -62 21
28 36 -37 18 -21 30 24 -3
-25 10 16 -60 5 -3 -48 27
8 43 -66 -5 17 -13 10 19
-55 -38 4 3 -36 23 41 36
-23 2 -25 43 25 33 -47 -27
12 50 -34 -2 -77 12 62 -32
44 0 -26 85 -20 9 45 -18
-10 -22 -89 -37 -4 39 -109 -43
59 -17 -18 58 30 20 -34 13
-42 52 5 -11 23 18 -12 16
-20 19 -1 51 32 50 11 45
10 -72 12 -39 20 -28 -24 -8
-14 -22 -75 23 45 29 26 -11
44 -28 -32 15 66 20 -25 -65
44 34 32 15 15 16 -33 41
-19 14 -44 -39 13 -32 15 -3
45 37 -22 -11 -5 40 14 -54
-34 32 3 -18 -29 8 -97 -18
-4 22 -74 -23 -16 26 -31 8
-86 -85 -11 -5 -9 25 43 -25

sequential_5/conv2d_8/Conv2D i1 [64, 3, 3, 64]
00000000: 9cac 02d5 33d6 dae8 f845 08df 4622 e833
00000010: ce3a f038 49b6 dd91 41f3 cd1f e3d3 e7f6
00000020: 249d 2908 eb99 cfb3 d2f2 ccf1 ecf8 dcab
00000030: 01bb 29f4 af20 d61e d416 d144 d4d7 c130
00000040: dd47 1e25 84cb e1fc 12be 0dc7 132f a92d
00000050: d2fa df27 184d cb18 38ee 21da 219a f3d7
00000060: 2c2e 032d 24ce ab18 ebff d605 14cd 29d9
00000070: 2cba f61a eac0 251c baa6 42ac cbc8 023e
00000080: 9bd3 1305 2224 e8b1 a6b9 d201 f731 d603
00000090: a9b6 e422 102f 059e 323c c607 a024 a35a
000000a0: cf07 cbad 45f5 b32f 1123 e3a3 eecb 341d
000000b0: 55d2 00f5 fa2e f0cf 37df f8cb bf01 e2cf
000000c0: d215 bfd2 3f42 c230 2333 fd94 cb0c 14df
000000d0: d292 f51c e327 fcab e31e 11e6 c902 d215
000000e0: 4d02 bec0 20fb a12a 9d15 12de eca8 1d3c
000000f0: 54b3 f0d7 cf0f a4c7 cca4 dd30 f545 f13c
-100 -84 2 -43 51 -42 -38 -24
-8 69 8 -33 70 34 -24 51
-50 58 -16 56 73 -74 -35 -111
65 -13 -51 31 -29 -45 -25 -10
36 -99 41 8 -21 -103 -49 -77
-46 -14 -52 -15 -20 -8 -36 -85
1 -69 41 -12 -81 32 -42 30
-44 22 -47 68 -44 -41 -63 48
-35 71 30 37 -124 -53 -31 -4
18 -66 13 -57 19 47 -87 45
-46 -6 -33 39 24 77 -53 24
56 -18 33 -38 33 -102 -13 -41
44 46 3 45 36 -50 -85 24
-21 -1 -42 5 20 -51 41 -39
44 -70 -10 26 -22 -64 37 28
-70 -90 66 -84 -53 -56 2 62
-101 -45 19 5 34 36 -24 -79
-90 -71 -46 1 -9 49 -42 3
-87 -74 -28 34 16 47 5 -98
50 60 -58 7 -96 36 -93 90
-49 7 -53 -83 69 -11 -77 47
17 35 -29 -93 -18 -53 52 29
85 -46 0 -11 -6 46 -16 -49
55 -33 -8 -53 -65 1 -30 -49
-46 21 -65 -46 63 66 -62 48
35 51 -3 -108 -53 12 20 -33
-46 -110 -11 28 -29 39 -4 -85
-29 30 17 -26 -55 2 -46 21
77 2 -66 -64 32 -5 -95 42
-99 21 18 -34 -20 -88 29 60
84 -77 -16 -41 -49 15 -92 -57
-52 -92 -35 48 -11 69 -15 60

sequential_5/conv2d_9/Conv2D i1 [64, 3, 3, 64]
00000000: df05 cceb c2dd dcf5 17df cced d9cf dfcd
00000010: 4fcf 20e4 b10c 12e7 ffed d6f3 2cfa 1531
00000020: ff26 ece4 dd14 2a03 e60a 11d9 cffd e7f3
00000030: bbfc e8e8 eff6 d825 0d17 d928 fb11 d6eb
00000040: 2cec f5da c7cc 2925 eb13 081e 81e4 07f4
00000050: e6f9 ebc9 09fb b223 25cf e021 d4e4 3ccc
00000060: d5dd c0f4 c423 3320 fddd f6f5 14d8 05cb
00000070: e226 c814 d715 f824 07d1 1dde f2e2 ddda
00000080: 20e1 c5e4 e3f1 de22 dcf6 cd0f 93fc 02f2
00000090: 1cfb c2de fbb9 f018 26d2 f106 db1b 06e0
000000a0: 140f 11c9 ea16 18e0 33d7 18e9 17e7 2ff3
000000b0: 2fc6 d3c7 cbd8 aff5 fbcd b9d1 d9d3 0ed3
000000c0: e731 fbb9 0019 13d6 b329 f6cf d4e1 2bfc
000000d0: 2ff5 c8fa fe09 1815 2720 0d0f 0219 001f
000000e0: da0e 052e dae6 0acc 210b 01fd ec05 0cd2
000000f0: d8e5 d4d7 f317 fdd8 18e3 ec0f d128 2518
-33 5 -52 -21 -62 -35 -36 -11
23 -33 -52 -19 -39 -49 -33 -51
79 -49 32 -28 -79 12 18 -25
-1 -19 -42 -13 44 -6 21 49
-1 38 -20 -28 -35 20 42 3
-26 10 17 -39 -49 -3 -25 -13
-69 -4 -24 -24 -17 -10 -40 37
13 23 -39 40 -5 17 -42 -21
44 -20 -11 -38 -57 -52 41 37
-21 19 8 30 -127 -28 7 -12
-26 -7 -21 -55 9 -5 -78 35
37 -49 -32 33 -44 -28 60 -52
-43 -35 -64 -12 -60 35 51 32
-3 -35 -10 -11 20 -40 5 -53
-30 38 -56 20 -41 21 -8 36
7 -47 29 -34 -14 -30 -35 -38
32 -31 -59 -28 -29 -15 -34 34
-36 -10 -51 15 -109 -4 2 -14
28 -5 -62 -34 -5 -71 -16 24
38 -46 -15 6 -37 27 6 -32
20 15 17 -55 -22 22 24 -32
51 -41 24 -23 23 -25 47 -13
47 -58 -45 -57 -53 -40 -81 -11
-5 -51 -71 -47 -39 -45 14 -45
-25 49 -5 -71 0 25 19 -42
-77 41 -10 -49 -44 -31 43 -4
47 -11 -56 -6 -2 9 24 21
39 32 13 15 2 25 0 31
-38 14 5 46 -38 -26 10 -52
33 11 1 -3 -20 5 12 -46
-40 -27 -44 -41 -13 23 -3 -40
24 -29 -20 15 -47 40 37 24

sequential_5/dense_2/MatMul i1 [64, 384] scale=0.0051234392 zero_point=0
00000000: fcf1 0e04 13fd fb10 0c00 0704 000c 0509
00000010: f110 0df2 12e8 03f1 08f0 f8ee 0410 00f5
00000020: fef3 f7fd f4ed 0cf2 f7f1 0c09 edec 1404
00000030: f3f6 04e9 eb07 f0ff eff2 02eb 0700 e909
00000040: f804 ef07 f2e5 10f6 0bf4 0305 ed15 f0ed
00000050: 04f1 f504 ee07 ff08 e8ed faee 0bfe 00f2
00000060: ebf4 10e9 14e1 eee4 e407 0911 0b0e 1007
00000070: fdf9 f6e4 0d12 0c06 11f7 fef9 f010 110a
00000080: eff6 13f0 eee5 12fd f612 fbf8 fded 120d
00000090: ed12 f212 15fa f510 ec0c f505 09fb fffd
000000a0: e5e6 1001 12ee f009 e8fb ea02 010a f1f2
000000b0: 0511 e609 000b fb0b f708 ff0b 0d0e 02f4
000000c0: ebeb f2eb fdfc f2e4 07fc ee11 04f4 f0f9
000000d0: 020e 00f3 10f0 05eb 0aee 13ed ee15 07ea
000000e0: edf5 feeb 1308 0309 070c 0cfd edf9 eb09
000000f0: 1003 02fd 08e8 eff3 07f6 05f4 f114 fa13
-0.020493757 -0.07685159 0.07172815 0.020493757 0.097345345 -0.015370318 -0.025617197 0.08197503
0.06148127 0.0 0.035864074 0.020493757 0.0 0.06148127 0.025617197 0.046110954
-0.07685159 0.08197503 0.06660471 -0.07172815 0.09222191 -0.12296254 0.015370318 -0.07685159
0.040987514 -0.08197503 -0.040987514 -0.09222191 0.020493757 0.08197503 0.0 -0.05635783
-0.0102468785 -0.06660471 -0.046110954 -0.015370318 -0.06148127 -0.097345345 0.06148127 -0.07172815
-0.046110954 -0.07685159 0.06148127 0.046110954 -0.097345345 -0.10246879 0.10246879 0.020493757
-0.06660471 -0.051234394 0.020493757 -0.117839105 -0.107592225 0.035864074 -0.08197503 -0.0051234392
-0.087098464 -0.07172815 0.0102468785 -0.107592225 0.035864074 0.0 -0.117839105 0.046110954
-0.040987514 0.020493757 -0.087098464 0.035864074 -0.07172815 -0.13833286 0.08197503 -0.051234394
0.05635783 -0.06148127 0.015370318 0.025617197 -0.097345345 0.107592225 -0.08197503 -0.097345345
0.020493757 -0.07685159 -0.05635783 0.020493757 -0.09222191 0.035864074 -0.0051234392 0.040987514
-0.12296254 -0.097345345 -0.030740635 -0.09222191 0.05635783 -0.0102468785 0.0 -0.07172815
-0.107592225 -0.06148127 0.08197503 -0.117839105 0.10246879 -0.15882662 -0.09222191 -0.1434563
-0.1434563 0.035864074 0.046110954 0.087098464 0.05635783 0.07172815 0.08197503 0.035864074
-0.015370318 -0.035864074 -0.051234394 -0.1434563 0.06660471 0.09222191 0.06148127 0.030740635
0.087098464 -0.046110954 -0.0102468785 -0.035864074 -0.08197503 0.08197503 0.087098464 0.051234394
-0.087098464 -0.051234394 0.097345345 -0.08197503 -0.09222191 -0.13833286 0.09222191 -0.015370318
-0.051234394 0.09222191 -0.025617197 -0.040987514 -0.015370318 -0.097345345 0.09222191 0.06660471
-0.097345345 0.09222191 -0.07172815 0.09222191 0.107592225 -0.030740635 -0.05635783 0.08197503
-0.10246879 0.06148127 -0.05635783 0.025617197 0.046110954 -0.025617197 -0.0051234392 -0.015370318
-0.13833286 -0.13320942 0.08197503 0.0051234392 0.09222191 -0.09222191 -0.08197503 0.046110954
-0.12296254 -0.025617197 -0.11271566 0.0102468785 0.0051234392 0.051234394 -0.07685159 -0.07172815
0.025617197 0.087098464 -0.13320942 0.046110954 0.0 0.05635783 -0.025617197 0.05635783
-0.046110954 0.040987514 -0.0051234392 0.05635783 0.06660471 0.07172815 0.0102468785 -0.06148127
-0.107592225 -0.107592225 -0.07172815 -0.107592225 -0.015370318 -0.020493757 -0.07172815 -0.1434563
0.035864074 -0.020493757 -0.09222191 0.087098464 0.020493757 -0.06148127 -0.08197503 -0.035864074
0.0102468785 0.07172815 0.0 -0.06660471 0.08197503 -0.08197503 0.025617197 -0.107592225
0.051234394 -0.09222191 0.097345345 -0.097345345 -0.09222191 0.107592225 0.035864074 -0.11271566
-0.097345345 -0.05635783 -0.0102468785 -0.107592225 0.097345345 0.040987514 0.015370318 0.046110954
0.035864074 0.06148127 0.06148127 -0.015370318 -0.097345345 -0.035864074 -0.107592225 0.046110954
0.08197503 0.015370318 0.0102468785 -0.015370318 0.040987514 -0.12296254 -0.087098464 -0.06660471
0.035864074 -0.051234394 0.025617197 -0.06148127 -0.07685159 0.10246879 -0.030740635 0.097345345
