app/src/main/ml/model.tflite (tflite, 246656 bytes, 14 tensors)

sequential_2/dense_1/MatMul f4 [4, 64]
00000000: 09c7 56be 2131 27bc aca4 4f3d 034a 1abe
00000010: bbea 953e 4b18 453e ed4c 0a3e cbb7 95bd
00000020: cebc 733e c5f9 29be ea7d 9d3e b69b 86bd
00000030: f123 17be 31c4 b7bd 2ac8 7a3d 143c 7cbe
00000040: 33e0 4cbe 70d2 853d 226d 84be 9d0d d4ba
00000050: 2aee 643c dfa5 353e c700 463e a6d0 703d
00000060: da06 273e a741 7abe 109d d8bd 4a28 c23d
00000070: e2ff 943e a1c9 f8bd 859b 95be 82e4 ebbd
00000080: 9d2d ecbd bf1a 01bd cec9 0f3d 22bb 0bbe
00000090: 72c3 303b 7a2a e2bc 3971 25be c7f6 ac3e
000000a0: 69bf 3ebe aba0 cb3c 5f45 4f3c d0d6 2dbe
000000b0: b030 723e 2957 1c3e 5718 303e 9b39 523d
000000c0: e2fe ac3d 3497 8a3e 7d5d 2b3c 7578 ac3e
000000d0: 8373 67be b9f0 86be f4c0 053e 1e52 863e
000000e0: 82c4 22bd 7e3b 363d 0368 9abc 4529 40be
000000f0: de63 923e 0b37 a6bc 896f c2bd c659 f9bd
00000100: deb3 b2bd eb8a 20be 6a3d 383e b0e6 933e
00000110: 6754 77be 38b0 d43d e333 fcbd 2d36 48be
00000120: f886 f3bd cd79 503e 2620 c03e d1db c23d
00000130: d46c 0a3e 018b 3b3e 7560 423e 7ab9 d33d
00000140: 5906 fbbc 4d4d f0bd 81e9 1cbe 7274 3fbd
00000150: 4ecb a13c 8110 58bd d0ba 5e3e c619 2dbd
00000160: 4534 8a3e 9dda 9dbe 8332 3dbe 4a57 01bd
00000170: 9646 2e3e 6d37 413e 35b2 7f3e 1c38 1bbe
00000180: cb16 9cbd cb1f adbd b18a 613e 377f 123e
00000190: 2bc6 5ebe f274 7e3e d4fb 8f3e a4f5 1b3e
000001a0: 24a0 213e d22b 29be 15bb 0dbe 7fcd 4e3b
000001b0: 9a15 fcbd c67c afbd 0e69 7a3e 3474 c9bd
000001c0: 277d 843e 2c55 80be 5efd 2f3e 9eff 30bc
000001d0: 8fa8 dd3d c44b 413d 532c 603e 08dd 4d3d
000001e0: 8190 f9bb 11ac adbd f53e 7dbd 1c1a b43d
000001f0: c948 85be b89a 9b3e 5db9 4f3e fa15 093e
00000200: 48ba 203e cc01 34bd e4c2 acbd 8435 b8bd
00000210: 6423 b43c c2d8 76be 447e 023e 6dd8 c2bd
00000220: 0809 08be 38f1 843e f159 063e 59de 72be
00000230: 9079 6bbe c936 7e3c 6332 283e be8e 923e
00000240: 7433 1ebe 22bc 443e e4d2 89be 452c 6cbe
00000250: 367a 223d 11fe 61be 9049 38be 0768 01be
00000260: 7fdf 453e 6403 71be c7f0 81be 4ac2 cdbd
00000270: b11a 54be 11c0 a73d 3cf7 9dbe 8cab ff3d
00000280: b916 74be 61d0 78be 9a36 f03c d46a c13d
00000290: 3541 99bd 124f 2f3d 589b 60be a191 363e
000002a0: eacb 3dbe 0aa8 2a3e cddd febd fe85 50be
000002b0: c213 8d3e cc80 3e3e d0d3 03bc b6bf 593e
000002c0: b515 97bd 7fad 4d3d 5dab 1a3e 5b73 57bd
000002d0: 43f1 e53d 567d 453d a992 4abe 3f31 003e
000002e0: 9752 143d 34b5 7ebe a31f aebe 7df4 0cbe
000002f0: 43cf 333e 1d8a f8bc 4e06 373d 6489 a4be
00000300: 6e1d 923c ae44 d7bd 7772 283e f0ab 273e
00000310: ac5a 43be 6008 413c 750a 073e 2a11 8abe
00000320: 9357 73be c5d5 223e 0a01 73be ffa3 84be
00000330: 5916 af3d 936d 2d3e 0476 7abe 21fc 493e
00000340: a621 633d bfaf 143e 66cb 483e d32f 7dbd
00000350: e512 d2bb afed d13d c044 38be 326b ec3d
00000360: 9833 103c 0e48 133e 6bb8 723e 3798 0bbe
00000370: 9410 6f3d 0b0f 383e 3d0d 8e3e a075 afbe
00000380: f5cd 80be 6869 72be 00ac 223c e156 6fbe
00000390: 1871 393e 2db6 983d 1d85 7c3e 992b 36be
000003a0: 00c4 42be 6ab0 3dbe 591e 84be cce0 433d
000003b0: 1c86 fcbc bcdd 4ebe b947 603e a513 31be
000003c0: cfca 6c3e b4fc 04be e5a8 4abe 238c 5e3e
000003d0: 278f 88be 362f 81bc ca09 363e 129f 9fbe
000003e0: d325 8d3d 5480 c0bd a0ad 063d 70d2 853e
000003f0: 9e1c f1bb 40e1 963e 5be6 83bb ae39 723e
-0.20974363 -0.010204584 0.050694153 -0.15067296 0.29280648 0.19247548 0.13505907 -0.07310446
0.23802492 -0.16599186 0.30760127 -0.06572668 -0.14759804 -0.089729674 0.061226048 -0.24632293
-0.200074 0.065342784 -0.25864512 -0.0016178373 0.013972798 0.17739056 0.19336234 0.058792733
0.16311207 -0.24439107 -0.10576832 0.09480341 0.29101473 -0.12147833 -0.29220214 -0.11518194
-0.115321375 -0.031519648 0.035104565 -0.13645604 0.0026971963 -0.027608145 -0.16156472 0.33782026
-0.18627705 0.024856886 0.012650817 -0.16976476 0.23651385 0.15267624 0.17196785 0.051324468
0.084470525 0.27068484 0.010459301 0.3368565 -0.22602658 -0.26355532 0.13061887 0.26234525
-0.039738186 0.04449033 -0.018848425 -0.18765743 0.28591818 -0.020289918 -0.0949393 -0.12175326
-0.08725713 -0.15677993 0.17992178 0.28886938 -0.2415329 0.103851736 -0.12314584 -0.19551916
-0.118909776 0.20358963 0.37524527 0.09514583 0.13518077 0.18314745 0.18982108 0.10338111
-0.030642675 -0.11733494 -0.1532345 -0.04674191 0.019750264 -0.052750114 0.21750951 -0.042260908
0.26993003 -0.3083085 -0.184763 -0.031577386 0.17019114 0.188688 0.24970324 -0.15158123
-0.07621535 -0.0845333 0.22025563 0.14306341 -0.21755283 0.24849299 0.28121817 0.15230423
0.15783745 -0.16520622 -0.13840897 0.003155559 -0.12308808 -0.085687205 0.24454138 -0.09836617
0.25876734 -0.2506498 0.17186496 -0.010803131 0.108231656 0.047191396 0.21891908 0.05025962
-0.007616103 -0.08480085 -0.06182762 0.087940425 -0.26032093 0.3039148 0.20285554 0.1338729
0.1569606 -0.043947026 -0.0843561 -0.08994582 0.021989532 -0.24106124 0.12743479 -0.09513936
-0.13284695 0.25965285 0.13120247 -0.23717631 -0.22995591 0.0155159915 0.16425471 0.2862453
-0.15449315 0.19212392 -0.2691871 -0.23063762 0.03966733 -0.22069575 -0.17996812 -0.1263734
0.19323538 -0.2353645 -0.2537901 -0.10046823 -0.20713307 0.08190931 -0.30852687 0.12483892
-0.23836793 -0.2429824 0.029322911 0.09444204 -0.074831404 0.042800017 -0.21934259 0.1782899
-0.18534818 0.16665664 -0.12444649 -0.20363614 0.27554137 0.1860382 -0.0080461055 0.21264538
-0.07377187 0.050214287 0.15104432 -0.052600246 0.11227658 0.048215233 -0.19782509 0.12518786
0.036211576 -0.24873811 -0.34008512 -0.1376514 0.17559533 -0.030339295 0.044683747 -0.3213607
0.017836299 -0.105111465 0.16449915 0.16374183 -0.19077557 0.011781782 0.13187583 -0.2696622
-0.23763876 0.15901859 -0.23730865 -0.2590637 0.08549184 0.1693633 -0.24459082 0.19725086
0.05545201 0.14520167 0.1960884 -0.061813187 -0.006410944 0.10250413 -0.17994976 0.115438834
0.008801363 0.14382955 0.23703162 -0.13632284 0.05836542 0.17974488 0.27744475 -0.34269428
-0.25157133 -0.23673022 0.009928703 -0.23372985 0.18109548 0.07456622 0.24660154 -0.17790069
-0.1902008 -0.18524328 -0.25804403 0.047821805 -0.030825667 -0.20201772 0.2190236 -0.1729265
0.2312424 -0.12987024 -0.1979099 0.21733145 -0.26671717 -0.015769582 0.17777172 -0.3117605
0.0689198 -0.09399477 0.032880425 0.26137114 -0.0073581478 0.29468727 -0.0040252632 0.23654816

sequential_2/dense/BiasAdd/ReadVariableOp f4 [64]
00000000: 0c91 343d fa3d cebc 98ba 20bc 0db4 efbc
00000010: 2cd1 983d 3443 0fbb f53c f13d 4663 183e
00000020: 83c9 fbbc cd56 8ebb 4a5c 813c 17e2 93bd
00000030: 2484 b3bd 0584 02bc 60b5 2dbc a9e9 863b
00000040: f72c babd 551e a23d 81f1 89bc fbf7 81bc
00000050: 55ff 02bd 8d4d 943d 20ac b43d ac86 f3bc
00000060: 0f62 32bd 93b4 543d fd14 80bc 2e72 dfbc
00000070: 8bfb 30bc 92ee 6abd 3a6f 9dbd 164e 543d
00000080: 0cee 133c 4d64 77bc 70a3 68bc 1cd7 94bc
00000090: 289e 8b3a da90 64bc 87d0 98bd 9bf9 c43d
000000a0: ef39 a9bd 91f4 893d 6584 a9bc 1e81 c4bc
000000b0: 5ac5 083e c2c2 cc3d 366c 45bd ca95 943c
000000c0: 78d3 46bd c53c 62bc 5f56 25bc 7183 fb3c
000000d0: e488 f2bc d38d b63b a91b dd3d 7ac0 9e3d
000000e0: 6b3c 4cbc 43f6 0bbb dd51 8d3d 6400 0bbd
000000f0: 8b37 113e 37b1 9b3b 4195 28bd fbfa a4bc
0.04408364 -0.025176037 -0.009810112 -0.02926066 0.07461771 -0.0021860125 0.11779205 0.1488162
-0.030735737 -0.0043438436 0.015791077 -0.072208576 -0.08765438 -0.007966046 -0.010602325 0.00411721
-0.090906076 0.079159416 -0.01683879 -0.015865317 -0.031981785 0.07241354 0.08821893 -0.029727302
-0.043550547 0.05193002 -0.015635008 -0.027276125 -0.01080216 -0.057356425 -0.076872304 0.05183228
0.009028923 -0.015099597 -0.014199123 -0.018168978 0.0010651993 -0.013950551 -0.074616484 0.09617921
-0.08263003 0.067361005 -0.020693013 -0.02398735 0.13356534 0.099980846 -0.0481989 0.018137831
-0.048541516 -0.013808434 -0.010091393 0.030702325 -0.02960629 0.005571106 0.107962914 0.07751556
-0.012465577 -0.00213565 0.0690038 -0.03393592 0.14181344 0.0047513503 -0.041157965 -0.020139208

sequential_2/dense_1/BiasAdd/ReadVariableOp f4 [4]
00000000: 9098 b13d 8b68 00be a484 103d cc5c 71bc
0.08671677 -0.1253988 0.035282746 -0.014731597

sequential_2/conv2d/Relu;sequential_2/conv2d/BiasAdd;sequential_2/conv2d/Conv2D;sequential_2/conv2d/BiasAdd/ReadVariableOp f4 [32, 3, 3, 3]
00000000: a7a0 8039 6bfe 073a d000 a5b8 7846 b4b9
00000010: 3358 5d38 5ffc 4738 f557 11ba 0c03 173a
00000020: 1d6a e9b9 ec31 a539 e290 c639 7bf6 8c38
00000030: d2a2 f8b9 3cd8 26b9 c8bc e538 24f2 9eb9
00000040: f4cd d239 10e9 b739 e11b a4b9 5def 6d39
00000050: 0208 e339 e0db de38 9aba 013a de44 1eba
00000060: 8833 bab9 3e9b a339 52ee 1dba da33 bc39
00000070: e301 3039 0baa 2538 e096 8a39 4a31 ad39
00000080: 0556 31ba 1186 4439 d014 45b9 9df9 e4b9
00000090: d0cc d439 a1f4 4bb9 ca51 25ba 2fe2 a939
000000a0: 0716 be39 000b da38 d52e 7f39 1b1d fd39
000000b0: 098e 46b9 3e07 c7b9 bcae 8bb9 cd2c 0bba
000000c0: 8cf8 e1b8 d914 d739 18bf 5fb8 062d 5eb9
000000d0: fc45 2f38 5698 29b9 25bb 7239 9882 ad38
000000e0: 7682 f438 7457 2eba a0f6 f138 9b4e f6b9
000000f0: 513c 38ba 73ea d239 e38e 82b9 1215 c7b8
00000100: 28f9 8cb9 c5a4 0737 7e91 4339 fdfe f8b8
00000110: 66ef 8539 9fa6 8fb9 20fb 0dba 016f 0b39
00000120: 2d39 bd38 89fa ce39 0c82 bb39 fcc7 7039
00000130: 74ef 7439 a0df 30b8 090b 5ab9 3740 d7b9
00000140: e6a4 9cb9 acb0 80b9 4544 89b9 d36c fd39
00000150: 6a0c 12ba 70d7 8238 2a11 b2b8 7226 fab9
00000160: 8084 23ba 73ae a139 cce0 0238 49d0 a5b9
00000170: e208 b539 85e2 c3b9 5294 feb9 8587 8838
00000180: 746a c939 2d64 103a a0a7 af38 7019 e339
00000190: 8145 3cb9 2d4d da39 ff28 2bba e5c7 b1b9
000001a0: 40d7 4639 32cf c738 32ad 04b9 1bf0 38b9
000001b0: 58c2 8db9 108b 7b39 67c1 aeb8 a84e c439
000001c0: cea4 2a39 92a1 b0b9 0036 e139 be20 03ba
000001d0: 32ec 5838 73ca 8839 c1bd bb39 f797 8b39
000001e0: 2e67 bd39 f888 73b9 6bd7 ad39 d19a a939
000001f0: 9a55 c5b8 3a6e 22b9 2e80 83b6 33b6 7c39
00000200: 78b3 3239 d596 c738 f0ca bc39 2554 1fba
00000210: d110 a3b8 0ea4 5ab9 16f6 45b9 e5a3 a4b9
00000220: fe9f 13b9 ff43 7938 3919 c539 1075 4fb9
00000230: 8d02 be39 1823 1e3a 97ae d338 f13a 163a
00000240: 1c37 02ba c65f 8eb9 da63 2cb9 bd76 3eb9
00000250: 35ae a239 3167 f5b9 1abc 5738 d220 8b39
00000260: 8fa1 10ba 2f66 a6b9 75c3 2cba d018 ddb9
00000270: 1f0a 0839 e24e b737 d62c f3b9 0b86 7138
00000280: a72f a6b9 8999 fab7 fdf8 aab9 f391 3038
00000290: 7e8a 163a 2293 0aba cbd7 0b3a a524 083a
000002a0: 8760 cfb9 2b03 9639 ac0d 0b3a 9672 b239
000002b0: 6330 cab9 6963 7eb8 f409 9838 503e 92b9
000002c0: 6b43 b539 d351 07ba 112f ba38 d3ca 6237
000002d0: e895 53b8 0528 2aba 444a d3b9 002a 14ba
000002e0: 2cf8 1eba 788c 1539 37e9 e838 be63 15b9
000002f0: bcc8 2e3a 6731 b0b9 f56f 20b9 110e 9238
00000300: 9e46 48b8 b54f a0b9 f7a3 e638 09ba 1aba
00000310: 4286 ffb9 5cec 34b9 bb89 04ba cf20 1ab5
00000320: 1837 cd38 bb84 19ba ac7b 9939 8458 f6b6
00000330: 1491 a5b9 ac3b 00ba 7c8a a4b9 57a1 1dba
00000340: b80a adb9 b252 3939 9cfd 93b9 e29e de39
00000350: e624 6139 0054 9db9 cecd 2939 9112 5ab9
00000360: 105c ebb8 a8e4 333a 5863 2139 98d7 0dba
00000370: 960b 9239 9f92 e038 4820 5838 b25c 9238
00000380: 4b6f 99b9 e1c3 143a 1da0 163a f98a c239
00000390: edc4 8a39 c9c6 8ab8 c14e b5b9 a953 d3b9
000003a0: 6909 0cba c3e5 53ba de3e cf39 c31d c2b8
000003b0: e291 3f3a e1c0 0639 0ce3 fdb9 3842 6e39
000003c0: 87b4 40ba f827 9eb9 1a17 48ba 948b f3b9
000003d0: 87dc 5238 613d 38ba 9cc8 bfb9 3df4 a4b9
000003e0: cda2 2ab8 11fa 1436 8d17 1b3a 71df 89b9
000003f0: 246f aab9 63ab 093a 6d4a 0eba 1acb cdb9
0.00024533758 0.00051877525 -7.8679645e-05 -0.0003438478 5.2772648e-05 4.7680336e-05 -0.00055444177 0.0005760647
-0.00044520284 0.00031508447 0.0003787345 6.721631e-05 -0.00047423557 -0.00015911547 0.00010954734 -0.00030316517
0.00040207768 0.00035078125 -0.0003130129 0.00022691251 0.0004330278 0.0001062674 0.0004948765 -0.00060374837
-0.00035515078 0.00031205447 -0.0006024587 0.00035896787 0.00016785371 3.949743e-05 0.00026433822 0.00033033855
-0.0006764832 0.0001874196 -0.00018795137 -0.00043673525 0.00040588388 -0.0001945072 -0.0006306438 0.00032402712
0.00036256036 0.00010397099 0.00024336141 0.00048277606 -0.00018935664 -0.00037961634 -0.00026642333 -0.0005309105
-0.000107751315 0.00041023528 -5.3345313e-05 -0.00021188342 4.178843e-05 -0.00016173846 0.00023148635 8.273608e-05
0.00011659127 -0.0006650605 0.00011537713 -0.00046979342 -0.0007028031 0.00040229 -0.0002490199 -9.492984e-05
-0.00026888517 8.08499e-06 0.00018650849 -0.00011873057 0.00025546103 -0.00027399228 -0.00054161437 0.00013297425
9.022872e-05 0.00039478045 0.00035764312 0.00022962684 0.00023358857 -4.2169937e-05 -0.00020794211 -0.0004105584
-0.00029877498 -0.00024545693 -0.0002618154 0.00048337 -0.0005571308 6.2390114e-05 -8.4908985e-05 -0.0004771236
-0.00062377006 0.00030838288 3.1203774e-05 -0.00031626437 0.00034529628 -0.00037362069 -0.00048557163 6.510228e-05
0.0003841702 0.00055080914 8.375873e-05 0.00043315766 -0.0001795497 0.000416377 -0.0006529241 -0.00033909004
0.00018962938 9.5276526e-05 -0.00012653021 -0.00017637054 -0.00027038413 0.0002398903 -8.3329905e-05 0.00037442637
0.00016273858 -0.00033689715 0.00042955577 -0.00050021324 5.1718387e-05 0.00026090778 0.00035808797 0.0002662537
0.00036125764 -0.0002322531 0.0003315763 0.0003234954 -9.4096366e-05 -0.00015490587 -3.9190263e-06 0.00024100467
0.0001704226 9.517154e-05 0.00036009355 -0.0006077907 -7.775578e-05 -0.00020851215 -0.00018879058 -0.00031402629
-0.00014078614 5.9429552e-05 0.0003759356 -0.00019784668 0.00036241525 0.0006032451 0.00010093784 0.0005730829
-0.00049673184 -0.00027155707 -0.00016440396 -0.00018164045 0.00031028842 -0.00046806925 5.1435178e-05 0.000265366
-0.0005517238 -0.0003173812 -0.00065904047 -0.00042170892 0.00012973741 2.1852033e-05 -0.00046381977 5.7583715e-05
-0.0003169749 -2.9873818e-05 -0.00032610437 4.2097596e-05 0.0005742683 -0.0005286207 0.0005334585 0.0005193449
-0.00039554035 0.0002861259 0.00053044665 0.0003403618 -0.00038564493 -6.0650902e-05 7.249779e-05 -0.00027893716
0.0003457324 -0.0005162034 8.877938e-05 1.3517873e-05 -5.044593e-05 -0.0006490949 -0.00040300388 -0.00056520104
-0.0006064202 0.00014262076 0.00011106062 -0.00014246904 0.0006667485 -0.00033606144 -0.00015300496 6.9644426e-05
-4.7749483e-05 -0.00030576964 0.000109977955 -0.0005902355 -0.0004873742 -0.00017254188 -0.0005055924 -5.7417213e-07
9.785424e-05 -0.0005856265 0.00029274577 -7.341676e-06 -0.00031579344 -0.00048917043 -0.00031383696 -0.0006013116
-0.00033005117 0.00017673781 -0.0002822698 0.00042461517 0.00021471418 -0.00030007958 0.00016193764 -0.00020797017
-0.00011222821 0.00068623805 0.00015391165 -0.0005410849 0.00027855922 0.00010708463 5.1528477e-05 6.979088e-05
-0.00029265354 0.000567494 0.00057459046 0.00037106106 0.00026468132 -6.6173794e-05 -0.00034581686 -0.00040307388
-0.00053419784 -0.00080832484 0.00039528956 -9.2561844e-05 0.000730781 0.00012851089 -0.00048425084 0.00022722117
-0.00073511194 -0.00030165887 -0.0007632837 -0.00046452566 5.0273284e-05 -0.0007028189 -0.00036579825 -0.0003146249
-4.068278e-05 2.2199276e-06 0.000591629 -0.00026297153 -0.00032507733 0.0005251674 -0.00054279604 -0.0003925197

sequential_2/conv2d/BiasAdd/ReadVariableOp f4 [32]
00000000: 32c4 723a da62 5b3d 83c8 92bd 0b7b 9b3d
00000010: 0580 96bd 2992 613c e0a9 af3c 3cda 883d
00000020: f959 933a ba29 483c 7c57 8a3d 81d7 93ba
00000030: b028 40bc 529e 26bd 1f2e 883c 6ac8 18bd
00000040: d739 3abd f810 673c 6592 513c 52ac 87bc
00000050: e1fb 11bd 4ac0 203c 1a96 e6bc ee93 db3c
00000060: 84d2 663c 19ce aabc fc1f 29bd 739c c3bc
00000070: c89f 8abc 8955 9f3d 2e59 4a3c bcc1 d3bc
0.0009260803 0.05356107 -0.07167151 0.07591828 -0.073486365 0.013767757 0.021443307 0.0668225
0.0011242024 0.01221698 0.067549676 -0.0011279435 -0.011728451 -0.04067833 0.016623555 -0.037300505
-0.045465317 0.014103167 0.012791251 -0.01656166 -0.0356406 0.00981147 -0.028147746 0.026803937
0.014088277 -0.020850228 -0.04129027 -0.023878312 -0.016921893 0.077799864 0.012350364 -0.025849216

sequential_2/conv2d_1/BiasAdd/ReadVariableOp f4 [64]
00000000: 7802 8ebc 28f8 b7bc 2c11 ed39 ab60 893d
00000010: c465 cdbb a43f 1c3c 8dfa 23bc 55b2 253d
00000020: 1d8b 673c ce64 b5bc 2542 23bd f1b6 6cbc
00000030: 9b84 89bb 7443 e4bc c77d b13c 03f2 e3bc
00000040: fe99 0d3d 716b b5bc 645b 38bc daad cbbc
00000050: fbd7 8cbd 2e5b 8dbd 4939 d13b c927 063c
00000060: 2d1d 703c c9f6 583c de29 06bd 40a1 8ebd
00000070: d017 503b 4a56 1cbd 7177 413d 03b5 4c3c
00000080: 796d 5cbd 282d 64ba 3f0d 7a3c 20e0 f03b
00000090: a683 89bb c0da 233d 1741 09bd 2f8f e3bb
000000a0: 9920 a8bc 247e 0cbd 6461 55bd 4fbc b6bc
000000b0: 7c25 913c 2295 ccbc 61b7 033d 8f93 5bbc
000000c0: 8653 b6bc 852b 353c 6fc9 da3c cda1 bfbc
000000d0: ee70 993a f3fb efbc 80bd 1ebd 85eb 6f3c
000000e0: b9a0 e4bb 43fb 6fbd ce8d bcbb b329 1dbd
000000f0: 5526 91bc deea 63bc cf3d 293c 8a9d 243d
-0.017335162 -0.022457197 0.00045216957 0.06707891 -0.006268235 0.0095366575 -0.010008466 0.040453274
0.014132288 -0.022142794 -0.039858002 -0.0144479135 -0.004196716 -0.027864195 0.02166642 -0.027825361
0.034570687 -0.022145959 -0.011252258 -0.024863172 -0.068771325 -0.06902157 0.0063850028 0.008188196
0.014655394 0.013242432 -0.03275477 -0.0696435 0.0031752475 -0.03816823 0.04723305 0.012494328
-0.05381534 -0.00087042386 0.015261947 0.0073509365 -0.004196602 0.040003538 -0.03350934 -0.006944559
-0.020523356 -0.034299985 -0.052094832 -0.02230659 0.01771807 -0.024973456 0.032157306 -0.01340188
-0.022256624 0.011057739 0.02670738 -0.023392582 0.0011706629 -0.029294943 -0.03875494 0.014643555
-0.0069771674 -0.05858923 -0.005754209 -0.038369846 -0.017718473 -0.013910977 0.010329678 0.040189303

sequential_2/conv2d_2/BiasAdd/ReadVariableOp f4 [64]
00000000: c7df b73c 01cd a13c e87d d9bc d5c8 283c
00000010: 99e6 fcbc 40f2 083d e589 77bc 46dc 0abd
00000020: ede4 5b3c 9cd5 803c 9b10 443c 5fd7 58bc
00000030: 3ad8 093b 6d78 9d3c c242 f6bc 14c7 dabc
00000040: 680f d23b 3293 393c b902 4abc d283 96bd
00000050: 9277 0b3d 93fd 923c 7659 9d3b 3989 d03c
00000060: 07fa 9fba 2093 a0bc 33e5 0ebd b432 c0bb
00000070: da33 033d 9f90 63bc 037e 083c 26b1 34bc
00000080: 204b e23b 816d 77bd d74b 6d3c b4f5 be3c
00000090: 3549 04bd faf7 8f3d 75d0 bdbc e3b3 bc3c
000000a0: 8093 1ebc 14c7 bd3a ef75 4ebd e86d 083b
000000b0: f680 21bd 0abb 56bd 8b0a dbbc 514c debc
000000c0: ddf0 1d3d c8ee adbd 7ac2 e9bc bcb9 f2bc
000000d0: d2a1 623c abe1 f5bc 679c 97bb b81c 5b3c
000000e0: d72c 23bd 3f5e 3a3c c28f 36bd a28d 0abc
000000f0: 4275 51bd 5b32 05bc 12cc 583c f887 fbbc
0.022445573 0.019751074 -0.026549295 0.010301788 -0.030871676 0.033434153 -0.01510856 -0.033901475
0.013421279 0.015726857 0.01196685 -0.013234942 0.0021033422 0.019222463 -0.03006113 -0.026706256
0.006410528 0.011326598 -0.012329751 -0.073493615 0.034049578 0.01794318 0.0048019243 0.025456058
-0.0012205251 -0.019601405 -0.03488655 -0.0058654193 0.03203187 -0.013889461 0.008330825 -0.011028564
0.0069059283 -0.060407165 0.014483414 0.02331052 -0.03229638 0.0702972 -0.02317069 0.023034995
-0.009678721 0.0014478886 -0.05040544 0.0020817462 -0.039429627 -0.052424468 -0.026738426 -0.027136
0.038559783 -0.084928095 -0.028535116 -0.02962958 0.013832526 -0.030014833 -0.004626799 0.013373546
-0.039837684 0.011375009 -0.044570692 -0.008456619 -0.051137216 -0.008129681 0.013232248 -0.030704483

sequential_2/conv2d_3/BiasAdd/ReadVariableOp f4 [64]
00000000: 0b95 f2bb 2f22 4b3d 1a6b 51bc fa1b 90bc
00000010: 03f1 35bd bc8f 883d dec6 16bd 6e22 29bd
00000020: a928 263c 2364 c43c c54c c8bc d484 5e3b
00000030: 0eca a5bc 4a47 9abc 18ce f4bc 8212 173d
00000040: 1c5c c1bc bb67 05bd cddc 8b3b d2de eb3b
00000050: e182 a83d b135 b6bc ff3c 22bd 5669 a03d
00000060: 178d 323d e83f 16bd cfe2 683c af0c 9b3c
00000070: 5f8c 93bc 250d abbc bee8 ebbc 414e 41bd
00000080: 9f46 a8bc c8ce 50bd 749d d33c 3c7a 2b3d
00000090: 6dfe d83c ae6c 40bd eb6f b53c ab88 5dbc
000000a0: ecc7 3e3d 9763 34bd c071 3abd 9139 df3c
000000b0: a311 b6bd 2839 3a3d 9931 4abc db9c a6bc
000000c0: 0030 843b 52e3 ccbc e6ee 81bc 5f64 9d3d
000000d0: 57cf 8a3d cf16 86bc 4b69 4bbd c599 ddbc
000000e0: d516 4fbd 8cce c6bc 4eb1 3bbd b12b 14bd
000000f0: 0dd6 14bd ce07 80bc 848b 173d c120 0b3d
-0.007403021 0.049593147 -0.012781883 -0.017591465 -0.0444193 0.0666804 -0.03681075 -0.0412926
0.01014153 0.02397353 -0.024450669 0.0033953683 -0.020237949 -0.018832821 -0.02988343 0.036882885
-0.023603491 -0.03256963 0.004268265 0.007198193 0.08228088 -0.022242399 -0.03960895 0.07832591
0.043591585 -0.03668204 0.014214232 0.018926946 -0.01801127 -0.020880291 -0.028797504 -0.04719377
-0.020541487 -0.050978452 0.025831915 0.04186462 0.026488507 -0.046978645 0.022148093 -0.013521354
0.04657738 -0.04404029 -0.045518637 0.02724913 -0.08890083 0.045464665 -0.012340927 -0.020338466
0.0040340424 -0.025010739 -0.015860986 0.0768516 0.06777828 -0.016368298 -0.049660962 -0.027050862
-0.050558884 -0.024268411 -0.045823388 -0.03617448 -0.036336947 -0.015628722 0.036998287 0.033966783

sequential_2/conv2d_4/BiasAdd/ReadVariableOp f4 [64]
00000000: 5a39 9cbc 4d91 d3bc b85d c6b9 75cb 3ebd
00000010: 087e 80bb ee33 a13d f2f1 b3bc 468a dfbc
00000020: 6ceb 263c cb38 32bd 5949 0e3c 9ede ccbc
00000030: 8cca 0fbc 7947 033e 590d 553d 0d54 27bd
00000040: 50db 13bd 4e6a 133b f9f5 17bd 572a 9bbc
00000050: 2b07 18bd a703 c1bc 7c8f 81bb a059 473d
00000060: 8f4e 92bc 6a6a 17bc fc1d 4ebd 2982 1e3c
00000070: 8c7c acbc 8915 a23d 4ab1 183e 94a0 44ba
00000080: cb35 24bd e5eb cebc a300 3cbc 97c6 c7bc
00000090: 0756 15bc f027 113e a181 ccbc e8d7 7ebd
000000a0: 0df1 0cbc aa13 0dbc 6655 c23d 6236 0b3d
000000b0: 1f40 adbd 0613 303c 756d a5bc bb5d 9c3d
000000c0: 04e8 8f3d ca5c ab3c 460d 833d 55c2 9bbc
000000d0: db03 d8bc 26d2 13bd e7f3 39bd 2711 babc
000000e0: 9f28 1abd 3112 67bd 3b79 8b3a d9d4 de3d
000000f0: a279 1e3e bf0e 6bbd e9e5 21bc 8e72 debc
-0.019070316 -0.02582612 -0.0003783533 -0.04658075 -0.003921274 0.07871233 -0.021965954 -0.027287614
0.010187965 -0.043511193 0.00868448 -0.025008496 -0.008776318 0.12820233 0.052014682 -0.04085164
-0.036097825 0.0022493782 -0.037099812 -0.018941088 -0.03711621 -0.023561312 -0.0039538722 0.048669457
-0.017859725 -0.00924168 -0.050321564 0.009674587 -0.021055482 0.07914264 0.1491138 -0.00075007346
-0.040090363 -0.025258968 -0.011474761 -0.024386687 -0.009114749 0.14175391 -0.024964156 -0.062217623
-0.008602393 -0.008610645 0.09488945 0.03398741 -0.08459496 0.010746723 -0.020193795 0.07635065
0.07026675 0.020918269 0.06399016 -0.019013563 -0.026369026 -0.036089085 -0.04539862 -0.022713257
-0.037636396 -0.056413833 0.0010640988 0.10880441 0.15476087 -0.05738711 -0.009881475 -0.027154233

sequential_2/conv2d_1/Conv2D i1 [64, 3, 3, 32]
00000000: ade6 ccd2 3f29 81a1 b6cb 5bc4 9d9a 4eeb
00000010: b6f9 f948 ff49 fff5 9609 5bf3 54ed 5ca3
00000020: daaa bc4e 48ac 959d babc 1912 089f 44b7
00000030: cd52 04b5 990f 4831 275a 013b a3e8 cdc8
00000040: 29c6 e1ca a0db 3a9d 0ed1 46c6 2692 b09e
00000050: 092e 230c 3468 ebfd 5ea0 f6a3 47c1 34ad
00000060: 19a1 a09e a7e8 f29a 4da0 2895 9f4e 0359
00000070: 4210 4cd5 c95a 3a0e d3c7 59ac 12b5 d69d
00000080: 32b8 aeae ba36 bd58 bedb bdb6 e0f6 43a0
00000090: 44ff 9aa4 00d3 87ea 24cb 1fbd acd2 3aa1
000000a0: 5204 0793 4748 e9dd fe5d 30ac b609 b3e9
000000b0: 3e59 abea 2ce1 3be3 f9b4 44e8 2cc7 f4cb
000000c0: af2e e63b 494a 0004 c4c5 3549 4bd6 cfb1
000000d0: 5118 272c 9603 fccf c2b6 30ed 1237 b8d8
000000e0: a6e8 f144 fb15 c245 d0c8 e404 d1e0 f665
000000f0: 2029 b796 520e babf 0d03 d114 34c3 1119
-83 -26 -52 -46 63 41 -127 -95
-74 -53 91 -60 -99 -102 78 -21
-74 -7 -7 72 -1 73 -1 -11
-106 9 91 -13 84 -19 92 -93
-38 -86 -68 78 72 -84 -107 -99
-70 -68 25 18 8 -97 68 -73
-51 82 4 -75 -103 15 72 49
39 90 1 59 -93 -24 -51 -56
41 -58 -31 -54 -96 -37 58 -99
14 -47 70 -58 38 -110 -80 -98
9 46 35 12 52 104 -21 -3
94 -96 -10 -93 71 -63 52 -83
25 -95 -96 -98 -89 -24 -14 -102
77 -96 40 -107 -97 78 3 89
66 16 76 -43 -55 90 58 14
-45 -57 89 -84 18 -75 -42 -99
50 -72 -82 -82 -70 54 -67 88
-66 -37 -67 -74 -32 -10 67 -96
68 -1 -102 -92 0 -45 -121 -22
36 -53 31 -67 -84 -46 58 -95
82 4 7 -109 71 72 -23 -35
-2 93 48 -84 -74 9 -77 -23
62 89 -85 -22 44 -31 59 -29
-7 -76 68 -24 44 -57 -12 -53
-81 46 -26 59 73 74 0 4
-60 -59 53 73 75 -42 -49 -79
81 24 39 44 -106 3 -4 -49
-62 -74 48 -19 18 55 -72 -40
-90 -24 -15 68 -5 21 -62 69
-48 -56 -28 4 -47 -32 -10 101
32 41 -73 -106 82 14 -70 -65
13 3 -47 20 52 -61 17 25

sequential_2/conv2d_2/Conv2D i1 [64, 3, 3, 64]
00000000: e7e1 0eed 0dd9 de28 ef10 c7e0 e90f 0fe8
00000010: 491f 1c08 0809 0ec7 0910 e70c e9ff 16f3
00000020: 1ddc 0213 f42b 2b03 da03 daa9 1508 02f5
00000030: e62d 18c8 cd13 e81e e0e4 d5fb cd27 db2b
00000040: 2b06 ecdf 02d9 dc3e d1fe f013 22f6 2ebe
00000050: 1be8 04fa da1c 03cb 0bfc e3ca 2dd9 23fe
00000060: fc03 e9ef e822 4610 dffa eff5 0edb 13f9
00000070: f723 140e fce3 24e6 df0c c2ea fdf0 d947
00000080: e1f7 161d 1d22 eb0f def0 aa27 0f0a 25cd
00000090: 0dde 0f23 e802 09c3 1c04 e1e8 f2dc dfd7
000000a0: ef07 12ed 1e23 301a e007 0ac7 e8e9 0fdc
000000b0: d3ff 101c 1cf8 f318 03ea dc14 08e9 fc56
000000c0: 0df6 e020 ec05 0f1f b9dc fbf4 fc09 27ff
000000d0: 4323 e103 c418 d8a5 2d1f c6d5 0fde f1f4
000000e0: ef1e 1f24 0746 4905 fceb c2f6 f7da dbdc
000000f0: c709 11eb cd06 f309 f817 ddec 2c0a 1e59
-25 -31 14 -19 13 -39 -34 40
-17 16 -57 -32 -23 15 15 -24
73 31 28 8 8 9 14 -57
9 16 -25 12 -23 -1 22 -13
29 -36 2 19 -12 43 43 3
-38 3 -38 -87 21 8 2 -11
-26 45 24 -56 -51 19 -24 30
-32 -28 -43 -5 -51 39 -37 43
43 6 -20 -33 2 -39 -36 62
-47 -2 -16 19 34 -10 46 -66
27 -24 4 -6 -38 28 3 -53
11 -4 -29 -54 45 -39 35 -2
-4 3 -23 -17 -24 34 70 16
-33 -6 -17 -11 14 -37 19 -7
-9 35 20 14 -4 -29 36 -26
-33 12 -62 -22 -3 -16 -39 71
-31 -9 22 29 29 34 -21 15
-34 -16 -86 39 15 10 37 -51
13 -34 15 35 -24 2 9 -61
28 4 -31 -24 -14 -36 -33 -41
-17 7 18 -19 30 35 48 26
-32 7 10 -57 -24 -23 15 -36
-45 -1 16 28 28 -8 -13 24
3 -22 -36 20 8 -23 -4 86
13 -10 -32 32 -20 5 15 31
-71 -36 -5 -12 -4 9 39 -1
67 35 -31 3 -60 24 -40 -91
45 31 -58 -43 15 -34 -15 -12
-17 30 31 36 7 70 73 5
-4 -21 -62 -10 -9 -38 -37 -36
-57 9 17 -21 -51 6 -13 9
-8 23 -35 -20 44 10 30 89

sequential_2/conv2d_3/Conv2D i1 [64, 3, 3, 64]
00000000: d346 e816 c9b3 422a 1b0e 3fd1 f2ff 0df9
00000010: c313 efb0 0622 45f1 e4c1 140c fa22 38fa
00000020: 16d7 f433 68fa be1d ff0d 051b d2da f007
00000030: 030f b1fa d5c3 f1fc 0060 f92a 09c4 a3df
00000040: ef6a 1538 cce4 5eee f61a 6ce4 f84f 07e3
00000050: d045 e5b4 0221 55d5 2002 260e fcfe 77f1
00000060: 30dc e20f 6b32 0dea e9ee ff47 d9da f326
00000070: 1013 a8ec c3c8 fc58 0667 25e7 ddda b9df
00000080: 1267 18ff d901 24db fc00 3ff9 262c 230d
00000090: 0431 aecd cf01 630d 14fb dac8 0321 29eb
000000a0: 241b f750 2ae4 1526 ca1c dc19 020a e30d
000000b0: 36ea a8f5 10fb d170 fc20 e126 e60a d00a
000000c0: de1f 2a36 e6db 4307 0d3a 26d3 e63b 150b
000000d0: d948 b48f 1551 29c8 df09 f8d1 f2fe 2cce
000000e0: 4bdb 0023 3c05 fa0d f2f0 fe25 f712 e403
000000f0: 3fcc dcfd ebae c63a 132b f62b fbc6 dce3
-45 70 -24 22 -55 -77 66 42
27 14 63 -47 -14 -1 13 -7
-61 19 -17 -80 6 34 69 -15
-28 -63 20 12 -6 34 56 -6
22 -41 -12 51 104 -6 -66 29
-1 13 5 27 -46 -38 -16 7
3 15 -79 -6 -43 -61 -15 -4
0 96 -7 42 9 -60 -93 -33
-17 106 21 56 -52 -28 94 -18
-10 26 108 -28 -8 79 7 -29
-48 69 -27 -76 2 33 85 -43
32 2 38 14 -4 -2 119 -15
48 -36 -30 15 107 50 13 -22
-23 -18 -1 71 -39 -38 -13 38
16 19 -88 -20 -61 -56 -4 88
6 103 37 -25 -35 -38 -71 -33
18 103 24 -1 -39 1 36 -37
-4 0 63 -7 38 44 35 13
4 49 -82 -51 -49 1 99 13
20 -5 -38 -56 3 33 41 -21
36 27 -9 80 42 -28 21 38
-54 28 -36 25 2 10 -29 13
54 -22 -88 -11 16 -5 -47 112
-4 32 -31 38 -26 10 -48 10
-34 31 42 54 -26 -37 67 7
13 58 38 -45 -26 59 21 11
-39 72 -76 -113 21 81 41 -56
-33 9 -8 -47 -14 -2 44 -50
75 -37 0 35 60 5 -6 13
-14 -16 -2 37 -9 18 -28 3
63 -52 -36 -3 -21 -82 -58 58
19 43 -10 43 -5 -58 -36 -29

sequential_2/conv2d_4/Conv2D i1 [64, 3, 3, 64]
00000000: 9bb2 d7e6 2de0 ca48 a0de d1dc ee0b 3527
00000010: 2d27 392c 5fc5 bab9 37bf b5cc 1baa b5c0
00000020: 29fb d8b2 1728 d1f4 1fcc c0c0 17cd 35a8
00000030: d803 f93f 0fc6 0815 1748 e64d d335 30cd
00000040: a7c0 17b3 a802 c825 a3b9 e0ff 292a 250d
00000050: 490e c625 3ddb 1bcf f25f b6b9 34f3 0017
00000060: df16 f4f5 f105 030a 2eb0 2322 2df4 0cc2
00000070: a816 cf9a 0447 02dc a34b 3e38 33fd af34
00000080: d6fc d9f6 c302 1d30 07ed af0c c84e bba5
00000090: 0c45 3fdd b20f 41f4 f433 d207 e643 e8ff
000000a0: 150d 21ce ae50 2c31 d613 1197 d4da 1637
000000b0: ff3f af24 2dde a425 0814 09be ff29 3039
000000c0: b99a b9a5 a3d4 05cc 9f11 1e20 b724 21fa
000000d0: 45e4 ee22 55fb 24b8 c01f c641 b428 b5c9
000000e0: 1c13 8fbb 195f b9c3 67ed ed2b e3d8 39a1
000000f0: 26d7 0117 a2db c197 e901 b909 361d d6a7
-101 -78 -41 -26 45 -32 -54 72
-96 -34 -47 -36 -18 11 53 39
45 39 57 44 95 -59 -70 -71
55 -65 -75 -52 27 -86 -75 -64
41 -5 -40 -78 23 40 -47 -12
31 -52 -64 -64 23 -51 53 -88
-40 3 -7 63 15 -58 8 21
23 72 -26 77 -45 53 48 -51
-89 -64 23 -77 -88 2 -56 37
-93 -71 -32 -1 41 42 37 13
73 14 -58 37 61 -37 27 -49
-14 95 -74 -71 52 -13 0 23
-33 22 -12 -11 -15 5 3 10
46 -80 35 34 45 -12 12 -62
-88 22 -49 -102 4 71 2 -36
-93 75 62 56 51 -3 -81 52
-42 -4 -39 -10 -61 2 29 48
7 -19 -81 12 -56 78 -69 -91
12 69 63 -35 -78 15 65 -12
-12 51 -46 7 -26 67 -24 -1
21 13 33 -50 -82 80 44 49
-42 19 17 -105 -44 -38 22 55
-1 63 -81 36 45 -34 -92 37
8 20 9 -66 -1 41 48 57
-71 -102 -71 -91 -93 -44 5 -52
-97 17 30 32 -73 36 33 -6
69 -28 -18 34 85 -5 36 -72
-64 31 -58 65 -76 40 -75 -55
28 19 -113 -69 25 95 -71 -61
103 -19 -19 43 -29 -40 57 -95
38 -41 1 23 -94 -37 -63 -105
-23 1 -71 9 54 29 -42 -89

sequential_2/dense/MatMul i1 [64, 1600] scale=0.003042604 zero_point=0
00000000: 080d f2fc 2805 0dfd 16e6 e4ff d60a e40b
00000010: 20df d703 0b06 0c21 0909 e929 f3fb 15d3
00000020: 150c 00fd f815 ebd6 1511 0ae4 e60a fff5
00000030: faf6 08ea 26e0 fc03 01ee fc15 02fe f1fe
00000040: f205 e8fc 0e0b 18e6 f4f2 d3fa 0a03 e402
00000050: 13ed dcfd f6f8 0f12 f500 e8f7 ed0b 0dd9
00000060: fafc 0b05 fb14 eaed ef03 fcd4 0107 fc0d
00000070: 1713 fa0c 0ade 00f8 1217 ef03 2a02 ecdc
00000080: 030d f900 0f2a f6dd f601 f305 f805 f60c
00000090: faf5 ede7 1013 1d22 f3f4 2212 e4e9 11f3
000000a0: 05fa f2f8 ef05 f6f9 10ea 24f4 1bfd f90f
000000b0: 12f8 e8fb 07cc 02fa 0af4 fffb 1cf9 f0ce
000000c0: 0afc f6f8 fe0f 0ade 0c0c 0106 f818 f302
000000d0: 04fc f2fe f2f8 281a 00fe 2106 0006 090f
000000e0: 0509 0510 0102 ff08 fa0b 200b 1803 01fb
000000f0: 041e f410 f30e 0215 0e0d 040e 2015 fafb
0.024340833 0.039553855 -0.042596456 -0.012170416 0.12170416 0.01521302 0.039553855 -0.009127812
0.06693729 -0.07910771 -0.08519291 -0.003042604 -0.12778938 0.03042604 -0.08519291 0.033468645
0.09736333 -0.10040593 -0.12474677 0.009127812 0.033468645 0.018255625 0.03651125 0.10040593
0.027383437 0.027383437 -0.06997989 0.12474677 -0.039553855 -0.01521302 0.06389469 -0.13691719
0.06389469 0.03651125 0.0 -0.009127812 -0.024340833 0.06389469 -0.06389469 -0.12778938
0.06389469 0.05172427 0.03042604 -0.08519291 -0.07910771 0.03042604 -0.003042604 -0.033468645
-0.018255625 -0.03042604 0.024340833 -0.06693729 0.11561895 -0.09736333 -0.012170416 0.009127812
0.003042604 -0.054766875 -0.012170416 0.06389469 0.006085208 -0.006085208 -0.04563906 -0.006085208
-0.042596456 0.01521302 -0.0730225 -0.012170416 0.042596456 0.033468645 0.0730225 -0.07910771
-0.03651125 -0.042596456 -0.13691719 -0.018255625 0.03042604 0.009127812 -0.08519291 0.006085208
0.057809476 -0.057809476 -0.10953375 -0.009127812 -0.03042604 -0.024340833 0.04563906 0.054766875
-0.033468645 0.0 -0.0730225 -0.027383437 -0.057809476 0.033468645 0.039553855 -0.11866156
-0.018255625 -0.012170416 0.033468645 0.01521302 -0.01521302 0.06085208 -0.06693729 -0.057809476
-0.05172427 0.009127812 -0.012170416 -0.13387458 0.003042604 0.021298228 -0.012170416 0.039553855
0.06997989 0.057809476 -0.018255625 0.03651125 0.03042604 -0.10344854 0.0 -0.024340833
0.054766875 0.06997989 -0.05172427 0.009127812 0.12778938 0.006085208 -0.06085208 -0.10953375
0.009127812 0.039553855 -0.021298228 0.0 0.04563906 0.12778938 -0.03042604 -0.10649114
-0.03042604 0.003042604 -0.039553855 0.01521302 -0.024340833 0.01521302 -0.03042604 0.03651125
-0.018255625 -0.033468645 -0.057809476 -0.0760651 0.048681665 0.057809476 0.08823552 0.10344854
-0.039553855 -0.03651125 0.10344854 0.054766875 -0.08519291 -0.06997989 0.05172427 -0.039553855
0.01521302 -0.018255625 -0.042596456 -0.024340833 -0.05172427 0.01521302 -0.03042604 -0.021298228
0.048681665 -0.06693729 0.10953375 -0.03651125 0.08215031 -0.009127812 -0.021298228 0.04563906
0.054766875 -0.024340833 -0.0730225 -0.01521302 0.021298228 -0.15821542 0.006085208 -0.018255625
0.03042604 -0.03651125 -0.003042604 -0.01521302 0.08519291 -0.021298228 -0.048681665 -0.1521302
0.03042604 -0.012170416 -0.03042604 -0.024340833 -0.006085208 0.04563906 0.03042604 -0.10344854
0.03651125 0.03651125 0.003042604 0.018255625 -0.024340833 0.0730225 -0.039553855 0.006085208
0.012170416 -0.012170416 -0.042596456 -0.006085208 -0.042596456 -0.024340833 0.12170416 0.07910771
0.0 -0.006085208 0.10040593 0.018255625 0.0 0.018255625 0.027383437 0.04563906
0.01521302 0.027383437 0.01521302 0.048681665 0.003042604 0.006085208 -0.003042604 0.024340833
-0.018255625 0.033468645 0.09736333 0.033468645 0.0730225 0.009127812 0.003042604 -0.01521302
0.012170416 0.09127812 -0.03651125 0.048681665 -0.039553855 0.042596456 0.006085208 0.06389469
0.042596456 0.039553855 0.012170416 0.042596456 0.09736333 0.06389469 -0.018255625 -0.01521302
